{"format": "graph-model", "generatedBy": "2.3.0", "convertedBy": "TensorFlow.js Converter v3.3.0", "signature": {"inputs": {"input_1:0": {"name": "input_1:0", "dtype": "DT_FLOAT", "tensorShape": {"dim": [{"size": "-1"}, {"size": "28"}, {"size": "28"}, {"size": "3"}]}}}, "outputs": {"Identity:0": {"name": "Identity:0", "dtype": "DT_FLOAT", "tensorShape": {"dim": [{"size": "-1"}, {"size": "1"}, {"size": "1"}, {"size": "15"}]}}}}, "modelTopology": {"node": [{"name": "ConstantFolding/StatefulPartitionedCall/mobile_net_v3_large/truediv_2_recip", "op": "Const", "attr": {"dtype": {"type": "DT_FLOAT"}, "value": {"tensor": {"dtype": "DT_FLOAT", "tensorShape": {}}}}}, {"name": "ConstantFolding/StatefulPartitionedCall/mobile_net_v3_large/truediv_1_recip", "op": "Const", "attr": {"dtype": {"type": "DT_FLOAT"}, "value": {"tensor": {"dtype": "DT_FLOAT", "tensorShape": {}}}}}, {"name": "ConstantFolding/StatefulPartitionedCall/mobile_net_v3_large/bottle_neck_14/truediv_1_recip", "op": "Const", "attr": {"value": {"tensor": {"dtype": "DT_FLOAT", "tensorShape": {}}}, "dtype": {"type": "DT_FLOAT"}}}, {"name": "ConstantFolding/StatefulPartitionedCall/mobile_net_v3_large/bottle_neck_14/truediv_recip", "op": "Const", "attr": {"value": {"tensor": {"dtype": "DT_FLOAT", "tensorShape": {}}}, "dtype": {"type": "DT_FLOAT"}}}, {"name": "StatefulPartitionedCall/mobile_net_v3_large/bottle_neck_14/add/y", "op": "Const", "attr": {"dtype": {"type": "DT_FLOAT"}, "value": {"tensor": {"dtype": "DT_FLOAT", "tensorShape": {}}}}}, {"name": "StatefulPartitionedCall/mobile_net_v3_large/bottle_neck_14/add_1/y", "op": "Const", "attr": {"dtype": {"type": "DT_FLOAT"}, "value": {"tensor": {"dtype": "DT_FLOAT", "tensorShape": {}}}}}, {"name": "StatefulPartitionedCall/mobile_net_v3_large/bottle_neck_14/se_block_14/global_average_pooling2d_14/Mean/reduction_indices", "op": "Const", "attr": {"dtype": {"type": "DT_INT32"}, "value": {"tensor": {"dtype": "DT_INT32", "tensorShape": {"dim": [{"size": "2"}]}}}}}, {"name": "unknown_297", "op": "Const", "attr": {"dtype": {"type": "DT_FLOAT"}, "value": {"tensor": {"dtype": "DT_FLOAT", "tensorShape": {"dim": [{"size": "960"}, {"size": "60"}]}}}}}, {"name": "unknown_298", "op": "Const", "attr": {"dtype": {"type": "DT_FLOAT"}, "value": {"tensor": {"dtype": "DT_FLOAT", "tensorShape": {"dim": [{"size": "60"}]}}}}}, {"name": "unknown_299", "op": "Const", "attr": {"value": {"tensor": {"dtype": "DT_FLOAT", "tensorShape": {"dim": [{"size": "60"}, {"size": "960"}]}}}, "dtype": {"type": "DT_FLOAT"}}}, {"name": "unknown_300", "op": "Const", "attr": {"value": {"tensor": {"dtype": "DT_FLOAT", "tensorShape": {"dim": [{"size": "960"}]}}}, "dtype": {"type": "DT_FLOAT"}}}, {"name": "StatefulPartitionedCall/mobile_net_v3_large/bottle_neck_14/se_block_14/add/y", "op": "Const", "attr": {"dtype": {"type": "DT_FLOAT"}, "value": {"tensor": {"dtype": "DT_FLOAT", "tensorShape": {}}}}}, {"name": "ConstantFolding/StatefulPartitionedCall/mobile_net_v3_large/bottle_neck_14/se_block_14/truediv_recip", "op": "Const", "attr": {"dtype": {"type": "DT_FLOAT"}, "value": {"tensor": {"dtype": "DT_FLOAT", "tensorShape": {}}}}}, {"name": "StatefulPartitionedCall/mobile_net_v3_large/bottle_neck_14/se_block_14/ExpandDims/dim", "op": "Const", "attr": {"value": {"tensor": {"dtype": "DT_INT32", "tensorShape": {}}}, "dtype": {"type": "DT_INT32"}}}, {"name": "StatefulPartitionedCall/mobile_net_v3_large/bottle_neck_14/se_block_14/ExpandDims_1/dim", "op": "Const", "attr": {"dtype": {"type": "DT_INT32"}, "value": {"tensor": {"dtype": "DT_INT32", "tensorShape": {}}}}}, {"name": "ConstantFolding/StatefulPartitionedCall/mobile_net_v3_large/bottle_neck_13/truediv_1_recip", "op": "Const", "attr": {"dtype": {"type": "DT_FLOAT"}, "value": {"tensor": {"dtype": "DT_FLOAT", "tensorShape": {}}}}}, {"name": "ConstantFolding/StatefulPartitionedCall/mobile_net_v3_large/bottle_neck_13/truediv_recip", "op": "Const", "attr": {"dtype": {"type": "DT_FLOAT"}, "value": {"tensor": {"dtype": "DT_FLOAT", "tensorShape": {}}}}}, {"name": "StatefulPartitionedCall/mobile_net_v3_large/bottle_neck_13/add/y", "op": "Const", "attr": {"dtype": {"type": "DT_FLOAT"}, "value": {"tensor": {"dtype": "DT_FLOAT", "tensorShape": {}}}}}, {"name": "StatefulPartitionedCall/mobile_net_v3_large/bottle_neck_13/add_1/y", "op": "Const", "attr": {"value": {"tensor": {"dtype": "DT_FLOAT", "tensorShape": {}}}, "dtype": {"type": "DT_FLOAT"}}}, {"name": "StatefulPartitionedCall/mobile_net_v3_large/bottle_neck_13/se_block_13/global_average_pooling2d_13/Mean/reduction_indices", "op": "Const", "attr": {"dtype": {"type": "DT_INT32"}, "value": {"tensor": {"dtype": "DT_INT32", "tensorShape": {"dim": [{"size": "2"}]}}}}}, {"name": "unknown_275", "op": "Const", "attr": {"dtype": {"type": "DT_FLOAT"}, "value": {"tensor": {"dtype": "DT_FLOAT", "tensorShape": {"dim": [{"size": "960"}, {"size": "60"}]}}}}}, {"name": "unknown_276", "op": "Const", "attr": {"dtype": {"type": "DT_FLOAT"}, "value": {"tensor": {"dtype": "DT_FLOAT", "tensorShape": {"dim": [{"size": "60"}]}}}}}, {"name": "unknown_277", "op": "Const", "attr": {"dtype": {"type": "DT_FLOAT"}, "value": {"tensor": {"dtype": "DT_FLOAT", "tensorShape": {"dim": [{"size": "60"}, {"size": "960"}]}}}}}, {"name": "unknown_278", "op": "Const", "attr": {"dtype": {"type": "DT_FLOAT"}, "value": {"tensor": {"dtype": "DT_FLOAT", "tensorShape": {"dim": [{"size": "960"}]}}}}}, {"name": "StatefulPartitionedCall/mobile_net_v3_large/bottle_neck_13/se_block_13/add/y", "op": "Const", "attr": {"dtype": {"type": "DT_FLOAT"}, "value": {"tensor": {"dtype": "DT_FLOAT", "tensorShape": {}}}}}, {"name": "ConstantFolding/StatefulPartitionedCall/mobile_net_v3_large/bottle_neck_13/se_block_13/truediv_recip", "op": "Const", "attr": {"value": {"tensor": {"dtype": "DT_FLOAT", "tensorShape": {}}}, "dtype": {"type": "DT_FLOAT"}}}, {"name": "StatefulPartitionedCall/mobile_net_v3_large/bottle_neck_13/se_block_13/ExpandDims/dim", "op": "Const", "attr": {"dtype": {"type": "DT_INT32"}, "value": {"tensor": {"dtype": "DT_INT32", "tensorShape": {}}}}}, {"name": "StatefulPartitionedCall/mobile_net_v3_large/bottle_neck_13/se_block_13/ExpandDims_1/dim", "op": "Const", "attr": {"dtype": {"type": "DT_INT32"}, "value": {"tensor": {"dtype": "DT_INT32", "tensorShape": {}}}}}, {"name": "ConstantFolding/StatefulPartitionedCall/mobile_net_v3_large/bottle_neck_12/truediv_1_recip", "op": "Const", "attr": {"dtype": {"type": "DT_FLOAT"}, "value": {"tensor": {"dtype": "DT_FLOAT", "tensorShape": {}}}}}, {"name": "ConstantFolding/StatefulPartitionedCall/mobile_net_v3_large/bottle_neck_12/truediv_recip", "op": "Const", "attr": {"dtype": {"type": "DT_FLOAT"}, "value": {"tensor": {"dtype": "DT_FLOAT", "tensorShape": {}}}}}, {"name": "ConstantFolding/StatefulPartitionedCall/mobile_net_v3_large/bottle_neck_11/truediv_1_recip", "op": "Const", "attr": {"dtype": {"type": "DT_FLOAT"}, "value": {"tensor": {"dtype": "DT_FLOAT", "tensorShape": {}}}}}, {"name": "ConstantFolding/StatefulPartitionedCall/mobile_net_v3_large/bottle_neck_11/truediv_recip", "op": "Const", "attr": {"dtype": {"type": "DT_FLOAT"}, "value": {"tensor": {"dtype": "DT_FLOAT", "tensorShape": {}}}}}, {"name": "StatefulPartitionedCall/mobile_net_v3_large/bottle_neck_11/add/y", "op": "Const", "attr": {"dtype": {"type": "DT_FLOAT"}, "value": {"tensor": {"dtype": "DT_FLOAT", "tensorShape": {}}}}}, {"name": "StatefulPartitionedCall/mobile_net_v3_large/bottle_neck_11/add_1/y", "op": "Const", "attr": {"dtype": {"type": "DT_FLOAT"}, "value": {"tensor": {"dtype": "DT_FLOAT", "tensorShape": {}}}}}, {"name": "StatefulPartitionedCall/mobile_net_v3_large/bottle_neck_11/se_block_11/global_average_pooling2d_11/Mean/reduction_indices", "op": "Const", "attr": {"dtype": {"type": "DT_INT32"}, "value": {"tensor": {"dtype": "DT_INT32", "tensorShape": {"dim": [{"size": "2"}]}}}}}, {"name": "unknown_231", "op": "Const", "attr": {"value": {"tensor": {"dtype": "DT_FLOAT", "tensorShape": {"dim": [{"size": "672"}, {"size": "42"}]}}}, "dtype": {"type": "DT_FLOAT"}}}, {"name": "unknown_232", "op": "Const", "attr": {"dtype": {"type": "DT_FLOAT"}, "value": {"tensor": {"dtype": "DT_FLOAT", "tensorShape": {"dim": [{"size": "42"}]}}}}}, {"name": "unknown_233", "op": "Const", "attr": {"value": {"tensor": {"dtype": "DT_FLOAT", "tensorShape": {"dim": [{"size": "42"}, {"size": "672"}]}}}, "dtype": {"type": "DT_FLOAT"}}}, {"name": "unknown_234", "op": "Const", "attr": {"value": {"tensor": {"dtype": "DT_FLOAT", "tensorShape": {"dim": [{"size": "672"}]}}}, "dtype": {"type": "DT_FLOAT"}}}, {"name": "StatefulPartitionedCall/mobile_net_v3_large/bottle_neck_11/se_block_11/add/y", "op": "Const", "attr": {"value": {"tensor": {"dtype": "DT_FLOAT", "tensorShape": {}}}, "dtype": {"type": "DT_FLOAT"}}}, {"name": "ConstantFolding/StatefulPartitionedCall/mobile_net_v3_large/bottle_neck_11/se_block_11/truediv_recip", "op": "Const", "attr": {"value": {"tensor": {"dtype": "DT_FLOAT", "tensorShape": {}}}, "dtype": {"type": "DT_FLOAT"}}}, {"name": "StatefulPartitionedCall/mobile_net_v3_large/bottle_neck_11/se_block_11/ExpandDims/dim", "op": "Const", "attr": {"dtype": {"type": "DT_INT32"}, "value": {"tensor": {"dtype": "DT_INT32", "tensorShape": {}}}}}, {"name": "StatefulPartitionedCall/mobile_net_v3_large/bottle_neck_11/se_block_11/ExpandDims_1/dim", "op": "Const", "attr": {"value": {"tensor": {"dtype": "DT_INT32", "tensorShape": {}}}, "dtype": {"type": "DT_INT32"}}}, {"name": "ConstantFolding/StatefulPartitionedCall/mobile_net_v3_large/bottle_neck_10/truediv_1_recip", "op": "Const", "attr": {"dtype": {"type": "DT_FLOAT"}, "value": {"tensor": {"dtype": "DT_FLOAT", "tensorShape": {}}}}}, {"name": "ConstantFolding/StatefulPartitionedCall/mobile_net_v3_large/bottle_neck_10/truediv_recip", "op": "Const", "attr": {"dtype": {"type": "DT_FLOAT"}, "value": {"tensor": {"dtype": "DT_FLOAT", "tensorShape": {}}}}}, {"name": "ConstantFolding/StatefulPartitionedCall/mobile_net_v3_large/bottle_neck_9/truediv_1_recip", "op": "Const", "attr": {"dtype": {"type": "DT_FLOAT"}, "value": {"tensor": {"dtype": "DT_FLOAT", "tensorShape": {}}}}}, {"name": "ConstantFolding/StatefulPartitionedCall/mobile_net_v3_large/bottle_neck_9/truediv_recip", "op": "Const", "attr": {"value": {"tensor": {"dtype": "DT_FLOAT", "tensorShape": {}}}, "dtype": {"type": "DT_FLOAT"}}}, {"name": "StatefulPartitionedCall/mobile_net_v3_large/bottle_neck_9/add/y", "op": "Const", "attr": {"dtype": {"type": "DT_FLOAT"}, "value": {"tensor": {"dtype": "DT_FLOAT", "tensorShape": {}}}}}, {"name": "StatefulPartitionedCall/mobile_net_v3_large/bottle_neck_9/add_1/y", "op": "Const", "attr": {"dtype": {"type": "DT_FLOAT"}, "value": {"tensor": {"dtype": "DT_FLOAT", "tensorShape": {}}}}}, {"name": "ConstantFolding/StatefulPartitionedCall/mobile_net_v3_large/bottle_neck_8/truediv_1_recip", "op": "Const", "attr": {"dtype": {"type": "DT_FLOAT"}, "value": {"tensor": {"dtype": "DT_FLOAT", "tensorShape": {}}}}}, {"name": "ConstantFolding/StatefulPartitionedCall/mobile_net_v3_large/bottle_neck_8/truediv_recip", "op": "Const", "attr": {"value": {"tensor": {"dtype": "DT_FLOAT", "tensorShape": {}}}, "dtype": {"type": "DT_FLOAT"}}}, {"name": "StatefulPartitionedCall/mobile_net_v3_large/bottle_neck_8/add/y", "op": "Const", "attr": {"dtype": {"type": "DT_FLOAT"}, "value": {"tensor": {"dtype": "DT_FLOAT", "tensorShape": {}}}}}, {"name": "StatefulPartitionedCall/mobile_net_v3_large/bottle_neck_8/add_1/y", "op": "Const", "attr": {"dtype": {"type": "DT_FLOAT"}, "value": {"tensor": {"dtype": "DT_FLOAT", "tensorShape": {}}}}}, {"name": "ConstantFolding/StatefulPartitionedCall/mobile_net_v3_large/bottle_neck_7/truediv_1_recip", "op": "Const", "attr": {"dtype": {"type": "DT_FLOAT"}, "value": {"tensor": {"dtype": "DT_FLOAT", "tensorShape": {}}}}}, {"name": "ConstantFolding/StatefulPartitionedCall/mobile_net_v3_large/bottle_neck_7/truediv_recip", "op": "Const", "attr": {"dtype": {"type": "DT_FLOAT"}, "value": {"tensor": {"dtype": "DT_FLOAT", "tensorShape": {}}}}}, {"name": "StatefulPartitionedCall/mobile_net_v3_large/bottle_neck_7/add/y", "op": "Const", "attr": {"dtype": {"type": "DT_FLOAT"}, "value": {"tensor": {"dtype": "DT_FLOAT", "tensorShape": {}}}}}, {"name": "StatefulPartitionedCall/mobile_net_v3_large/bottle_neck_7/add_1/y", "op": "Const", "attr": {"value": {"tensor": {"dtype": "DT_FLOAT", "tensorShape": {}}}, "dtype": {"type": "DT_FLOAT"}}}, {"name": "ConstantFolding/StatefulPartitionedCall/mobile_net_v3_large/bottle_neck_6/truediv_1_recip", "op": "Const", "attr": {"value": {"tensor": {"dtype": "DT_FLOAT", "tensorShape": {}}}, "dtype": {"type": "DT_FLOAT"}}}, {"name": "ConstantFolding/StatefulPartitionedCall/mobile_net_v3_large/bottle_neck_6/truediv_recip", "op": "Const", "attr": {"value": {"tensor": {"dtype": "DT_FLOAT", "tensorShape": {}}}, "dtype": {"type": "DT_FLOAT"}}}, {"name": "StatefulPartitionedCall/mobile_net_v3_large/bottle_neck_5/se_block_5/global_average_pooling2d_5/Mean/reduction_indices", "op": "Const", "attr": {"value": {"tensor": {"dtype": "DT_INT32", "tensorShape": {"dim": [{"size": "2"}]}}}, "dtype": {"type": "DT_INT32"}}}, {"name": "unknown_115", "op": "Const", "attr": {"dtype": {"type": "DT_FLOAT"}, "value": {"tensor": {"dtype": "DT_FLOAT", "tensorShape": {"dim": [{"size": "120"}, {"size": "7"}]}}}}}, {"name": "unknown_116", "op": "Const", "attr": {"dtype": {"type": "DT_FLOAT"}, "value": {"tensor": {"dtype": "DT_FLOAT", "tensorShape": {"dim": [{"size": "7"}]}}}}}, {"name": "unknown_117", "op": "Const", "attr": {"dtype": {"type": "DT_FLOAT"}, "value": {"tensor": {"dtype": "DT_FLOAT", "tensorShape": {"dim": [{"size": "7"}, {"size": "120"}]}}}}}, {"name": "unknown_118", "op": "Const", "attr": {"value": {"tensor": {"dtype": "DT_FLOAT", "tensorShape": {"dim": [{"size": "120"}]}}}, "dtype": {"type": "DT_FLOAT"}}}, {"name": "StatefulPartitionedCall/mobile_net_v3_large/bottle_neck_5/se_block_5/add/y", "op": "Const", "attr": {"dtype": {"type": "DT_FLOAT"}, "value": {"tensor": {"dtype": "DT_FLOAT", "tensorShape": {}}}}}, {"name": "ConstantFolding/StatefulPartitionedCall/mobile_net_v3_large/bottle_neck_5/se_block_5/truediv_recip", "op": "Const", "attr": {"dtype": {"type": "DT_FLOAT"}, "value": {"tensor": {"dtype": "DT_FLOAT", "tensorShape": {}}}}}, {"name": "StatefulPartitionedCall/mobile_net_v3_large/bottle_neck_5/se_block_5/ExpandDims/dim", "op": "Const", "attr": {"dtype": {"type": "DT_INT32"}, "value": {"tensor": {"dtype": "DT_INT32", "tensorShape": {}}}}}, {"name": "StatefulPartitionedCall/mobile_net_v3_large/bottle_neck_5/se_block_5/ExpandDims_1/dim", "op": "Const", "attr": {"dtype": {"type": "DT_INT32"}, "value": {"tensor": {"dtype": "DT_INT32", "tensorShape": {}}}}}, {"name": "StatefulPartitionedCall/mobile_net_v3_large/bottle_neck_4/se_block_4/global_average_pooling2d_4/Mean/reduction_indices", "op": "Const", "attr": {"dtype": {"type": "DT_INT32"}, "value": {"tensor": {"dtype": "DT_INT32", "tensorShape": {"dim": [{"size": "2"}]}}}}}, {"name": "unknown_93", "op": "Const", "attr": {"dtype": {"type": "DT_FLOAT"}, "value": {"tensor": {"dtype": "DT_FLOAT", "tensorShape": {"dim": [{"size": "120"}, {"size": "7"}]}}}}}, {"name": "unknown_94", "op": "Const", "attr": {"value": {"tensor": {"dtype": "DT_FLOAT", "tensorShape": {"dim": [{"size": "7"}]}}}, "dtype": {"type": "DT_FLOAT"}}}, {"name": "unknown_95", "op": "Const", "attr": {"dtype": {"type": "DT_FLOAT"}, "value": {"tensor": {"dtype": "DT_FLOAT", "tensorShape": {"dim": [{"size": "7"}, {"size": "120"}]}}}}}, {"name": "unknown_96", "op": "Const", "attr": {"dtype": {"type": "DT_FLOAT"}, "value": {"tensor": {"dtype": "DT_FLOAT", "tensorShape": {"dim": [{"size": "120"}]}}}}}, {"name": "StatefulPartitionedCall/mobile_net_v3_large/bottle_neck_4/se_block_4/add/y", "op": "Const", "attr": {"value": {"tensor": {"dtype": "DT_FLOAT", "tensorShape": {}}}, "dtype": {"type": "DT_FLOAT"}}}, {"name": "ConstantFolding/StatefulPartitionedCall/mobile_net_v3_large/bottle_neck_4/se_block_4/truediv_recip", "op": "Const", "attr": {"dtype": {"type": "DT_FLOAT"}, "value": {"tensor": {"dtype": "DT_FLOAT", "tensorShape": {}}}}}, {"name": "StatefulPartitionedCall/mobile_net_v3_large/bottle_neck_4/se_block_4/ExpandDims/dim", "op": "Const", "attr": {"dtype": {"type": "DT_INT32"}, "value": {"tensor": {"dtype": "DT_INT32", "tensorShape": {}}}}}, {"name": "StatefulPartitionedCall/mobile_net_v3_large/bottle_neck_4/se_block_4/ExpandDims_1/dim", "op": "Const", "attr": {"dtype": {"type": "DT_INT32"}, "value": {"tensor": {"dtype": "DT_INT32", "tensorShape": {}}}}}, {"name": "ConstantFolding/StatefulPartitionedCall/mobile_net_v3_large/truediv_recip", "op": "Const", "attr": {"value": {"tensor": {"dtype": "DT_FLOAT", "tensorShape": {}}}, "dtype": {"type": "DT_FLOAT"}}}, {"name": "StatefulPartitionedCall/mobile_net_v3_large/add/y", "op": "Const", "attr": {"dtype": {"type": "DT_FLOAT"}, "value": {"tensor": {"dtype": "DT_FLOAT", "tensorShape": {}}}}}, {"name": "StatefulPartitionedCall/mobile_net_v3_large/bottle_neck_3/se_block_3/global_average_pooling2d_3/Mean/reduction_indices", "op": "Const", "attr": {"dtype": {"type": "DT_INT32"}, "value": {"tensor": {"dtype": "DT_INT32", "tensorShape": {"dim": [{"size": "2"}]}}}}}, {"name": "unknown_71", "op": "Const", "attr": {"dtype": {"type": "DT_FLOAT"}, "value": {"tensor": {"dtype": "DT_FLOAT", "tensorShape": {"dim": [{"size": "72"}, {"size": "4"}]}}}}}, {"name": "unknown_72", "op": "Const", "attr": {"dtype": {"type": "DT_FLOAT"}, "value": {"tensor": {"dtype": "DT_FLOAT", "tensorShape": {"dim": [{"size": "4"}]}}}}}, {"name": "unknown_73", "op": "Const", "attr": {"value": {"tensor": {"dtype": "DT_FLOAT", "tensorShape": {"dim": [{"size": "4"}, {"size": "72"}]}}}, "dtype": {"type": "DT_FLOAT"}}}, {"name": "unknown_74", "op": "Const", "attr": {"value": {"tensor": {"dtype": "DT_FLOAT", "tensorShape": {"dim": [{"size": "72"}]}}}, "dtype": {"type": "DT_FLOAT"}}}, {"name": "StatefulPartitionedCall/mobile_net_v3_large/bottle_neck_3/se_block_3/add/y", "op": "Const", "attr": {"value": {"tensor": {"dtype": "DT_FLOAT", "tensorShape": {}}}, "dtype": {"type": "DT_FLOAT"}}}, {"name": "ConstantFolding/StatefulPartitionedCall/mobile_net_v3_large/bottle_neck_3/se_block_3/truediv_recip", "op": "Const", "attr": {"dtype": {"type": "DT_FLOAT"}, "value": {"tensor": {"dtype": "DT_FLOAT", "tensorShape": {}}}}}, {"name": "StatefulPartitionedCall/mobile_net_v3_large/bottle_neck_3/se_block_3/ExpandDims/dim", "op": "Const", "attr": {"dtype": {"type": "DT_INT32"}, "value": {"tensor": {"dtype": "DT_INT32", "tensorShape": {}}}}}, {"name": "StatefulPartitionedCall/mobile_net_v3_large/bottle_neck_3/se_block_3/ExpandDims_1/dim", "op": "Const", "attr": {"value": {"tensor": {"dtype": "DT_INT32", "tensorShape": {}}}, "dtype": {"type": "DT_INT32"}}}, {"name": "StatefulPartitionedCall/mobile_net_v3_large/bottle_neck_6/add/y", "op": "Const", "attr": {"dtype": {"type": "DT_FLOAT"}, "value": {"tensor": {"dtype": "DT_FLOAT", "tensorShape": {}}}}}, {"name": "StatefulPartitionedCall/mobile_net_v3_large/bottle_neck_6/add_1/y", "op": "Const", "attr": {"dtype": {"type": "DT_FLOAT"}, "value": {"tensor": {"dtype": "DT_FLOAT", "tensorShape": {}}}}}, {"name": "StatefulPartitionedCall/mobile_net_v3_large/bottle_neck_10/add/y", "op": "Const", "attr": {"dtype": {"type": "DT_FLOAT"}, "value": {"tensor": {"dtype": "DT_FLOAT", "tensorShape": {}}}}}, {"name": "StatefulPartitionedCall/mobile_net_v3_large/bottle_neck_10/add_1/y", "op": "Const", "attr": {"dtype": {"type": "DT_FLOAT"}, "value": {"tensor": {"dtype": "DT_FLOAT", "tensorShape": {}}}}}, {"name": "StatefulPartitionedCall/mobile_net_v3_large/bottle_neck_10/se_block_10/global_average_pooling2d_10/Mean/reduction_indices", "op": "Const", "attr": {"value": {"tensor": {"dtype": "DT_INT32", "tensorShape": {"dim": [{"size": "2"}]}}}, "dtype": {"type": "DT_INT32"}}}, {"name": "unknown_209", "op": "Const", "attr": {"dtype": {"type": "DT_FLOAT"}, "value": {"tensor": {"dtype": "DT_FLOAT", "tensorShape": {"dim": [{"size": "480"}, {"size": "30"}]}}}}}, {"name": "unknown_210", "op": "Const", "attr": {"value": {"tensor": {"dtype": "DT_FLOAT", "tensorShape": {"dim": [{"size": "30"}]}}}, "dtype": {"type": "DT_FLOAT"}}}, {"name": "unknown_211", "op": "Const", "attr": {"dtype": {"type": "DT_FLOAT"}, "value": {"tensor": {"dtype": "DT_FLOAT", "tensorShape": {"dim": [{"size": "30"}, {"size": "480"}]}}}}}, {"name": "unknown_212", "op": "Const", "attr": {"value": {"tensor": {"dtype": "DT_FLOAT", "tensorShape": {"dim": [{"size": "480"}]}}}, "dtype": {"type": "DT_FLOAT"}}}, {"name": "StatefulPartitionedCall/mobile_net_v3_large/bottle_neck_10/se_block_10/add/y", "op": "Const", "attr": {"dtype": {"type": "DT_FLOAT"}, "value": {"tensor": {"dtype": "DT_FLOAT", "tensorShape": {}}}}}, {"name": "ConstantFolding/StatefulPartitionedCall/mobile_net_v3_large/bottle_neck_10/se_block_10/truediv_recip", "op": "Const", "attr": {"value": {"tensor": {"dtype": "DT_FLOAT", "tensorShape": {}}}, "dtype": {"type": "DT_FLOAT"}}}, {"name": "StatefulPartitionedCall/mobile_net_v3_large/bottle_neck_10/se_block_10/ExpandDims/dim", "op": "Const", "attr": {"value": {"tensor": {"dtype": "DT_INT32", "tensorShape": {}}}, "dtype": {"type": "DT_INT32"}}}, {"name": "StatefulPartitionedCall/mobile_net_v3_large/bottle_neck_10/se_block_10/ExpandDims_1/dim", "op": "Const", "attr": {"dtype": {"type": "DT_INT32"}, "value": {"tensor": {"dtype": "DT_INT32", "tensorShape": {}}}}}, {"name": "StatefulPartitionedCall/mobile_net_v3_large/bottle_neck_12/add/y", "op": "Const", "attr": {"dtype": {"type": "DT_FLOAT"}, "value": {"tensor": {"dtype": "DT_FLOAT", "tensorShape": {}}}}}, {"name": "StatefulPartitionedCall/mobile_net_v3_large/bottle_neck_12/add_1/y", "op": "Const", "attr": {"value": {"tensor": {"dtype": "DT_FLOAT", "tensorShape": {}}}, "dtype": {"type": "DT_FLOAT"}}}, {"name": "StatefulPartitionedCall/mobile_net_v3_large/bottle_neck_12/se_block_12/global_average_pooling2d_12/Mean/reduction_indices", "op": "Const", "attr": {"dtype": {"type": "DT_INT32"}, "value": {"tensor": {"dtype": "DT_INT32", "tensorShape": {"dim": [{"size": "2"}]}}}}}, {"name": "unknown_253", "op": "Const", "attr": {"dtype": {"type": "DT_FLOAT"}, "value": {"tensor": {"dtype": "DT_FLOAT", "tensorShape": {"dim": [{"size": "672"}, {"size": "42"}]}}}}}, {"name": "unknown_254", "op": "Const", "attr": {"dtype": {"type": "DT_FLOAT"}, "value": {"tensor": {"dtype": "DT_FLOAT", "tensorShape": {"dim": [{"size": "42"}]}}}}}, {"name": "unknown_255", "op": "Const", "attr": {"dtype": {"type": "DT_FLOAT"}, "value": {"tensor": {"dtype": "DT_FLOAT", "tensorShape": {"dim": [{"size": "42"}, {"size": "672"}]}}}}}, {"name": "unknown_256", "op": "Const", "attr": {"dtype": {"type": "DT_FLOAT"}, "value": {"tensor": {"dtype": "DT_FLOAT", "tensorShape": {"dim": [{"size": "672"}]}}}}}, {"name": "StatefulPartitionedCall/mobile_net_v3_large/bottle_neck_12/se_block_12/add/y", "op": "Const", "attr": {"dtype": {"type": "DT_FLOAT"}, "value": {"tensor": {"dtype": "DT_FLOAT", "tensorShape": {}}}}}, {"name": "ConstantFolding/StatefulPartitionedCall/mobile_net_v3_large/bottle_neck_12/se_block_12/truediv_recip", "op": "Const", "attr": {"dtype": {"type": "DT_FLOAT"}, "value": {"tensor": {"dtype": "DT_FLOAT", "tensorShape": {}}}}}, {"name": "StatefulPartitionedCall/mobile_net_v3_large/bottle_neck_12/se_block_12/ExpandDims/dim", "op": "Const", "attr": {"dtype": {"type": "DT_INT32"}, "value": {"tensor": {"dtype": "DT_INT32", "tensorShape": {}}}}}, {"name": "StatefulPartitionedCall/mobile_net_v3_large/bottle_neck_12/se_block_12/ExpandDims_1/dim", "op": "Const", "attr": {"dtype": {"type": "DT_INT32"}, "value": {"tensor": {"dtype": "DT_INT32", "tensorShape": {}}}}}, {"name": "StatefulPartitionedCall/mobile_net_v3_large/add_1/y", "op": "Const", "attr": {"dtype": {"type": "DT_FLOAT"}, "value": {"tensor": {"dtype": "DT_FLOAT", "tensorShape": {}}}}}, {"name": "unknown_313", "op": "Const", "attr": {"dtype": {"type": "DT_FLOAT"}, "value": {"tensor": {"dtype": "DT_FLOAT", "tensorShape": {"dim": [{"size": "1"}, {"size": "1"}, {"size": "960"}, {"size": "1280"}]}}}}}, {"name": "unknown_314", "op": "Const", "attr": {"dtype": {"type": "DT_FLOAT"}, "value": {"tensor": {"dtype": "DT_FLOAT", "tensorShape": {"dim": [{"size": "1280"}]}}}}}, {"name": "StatefulPartitionedCall/mobile_net_v3_large/add_2/y", "op": "Const", "attr": {"dtype": {"type": "DT_FLOAT"}, "value": {"tensor": {"dtype": "DT_FLOAT", "tensorShape": {}}}}}, {"name": "unknown_315", "op": "Const", "attr": {"dtype": {"type": "DT_FLOAT"}, "value": {"tensor": {"dtype": "DT_FLOAT", "tensorShape": {"dim": [{"size": "1"}, {"size": "1"}, {"size": "1280"}, {"size": "15"}]}}}}}, {"name": "unknown_316", "op": "Const", "attr": {"dtype": {"type": "DT_FLOAT"}, "value": {"tensor": {"dtype": "DT_FLOAT", "tensorShape": {"dim": [{"size": "15"}]}}}}}, {"name": "StatefulPartitionedCall/mobile_net_v3_large/conv2d_33/Max/reduction_indices", "op": "Const", "attr": {"dtype": {"type": "DT_INT32"}, "value": {"tensor": {"dtype": "DT_INT32", "tensorShape": {}}}}}, {"name": "StatefulPartitionedCall/mobile_net_v3_large/conv2d_33/Sum/reduction_indices", "op": "Const", "attr": {"dtype": {"type": "DT_INT32"}, "value": {"tensor": {"dtype": "DT_INT32", "tensorShape": {}}}}}, {"name": "input_1", "op": "Placeholder", "attr": {"dtype": {"type": "DT_FLOAT"}, "shape": {"shape": {"dim": [{"size": "-1"}, {"size": "28"}, {"size": "28"}, {"size": "3"}]}}}}, {"name": "StatefulPartitionedCall/mobile_net_v3_large/conv2d/Conv2D_weights", "op": "Const", "attr": {"dtype": {"type": "DT_FLOAT"}, "value": {"tensor": {"dtype": "DT_FLOAT", "tensorShape": {"dim": [{"size": "3"}, {"size": "3"}, {"size": "3"}, {"size": "16"}]}}}}}, {"name": "StatefulPartitionedCall/mobile_net_v3_large/conv2d/Conv2D_bn_offset", "op": "Const", "attr": {"dtype": {"type": "DT_FLOAT"}, "value": {"tensor": {"dtype": "DT_FLOAT", "tensorShape": {"dim": [{"size": "16"}]}}}}}, {"name": "StatefulPartitionedCall/mobile_net_v3_large/bottle_neck/conv2d_1/Conv2D_weights", "op": "Const", "attr": {"value": {"tensor": {"dtype": "DT_FLOAT", "tensorShape": {"dim": [{"size": "1"}, {"size": "1"}, {"size": "16"}, {"size": "16"}]}}}, "dtype": {"type": "DT_FLOAT"}}}, {"name": "StatefulPartitionedCall/mobile_net_v3_large/bottle_neck/conv2d_1/Conv2D_bn_offset", "op": "Const", "attr": {"dtype": {"type": "DT_FLOAT"}, "value": {"tensor": {"dtype": "DT_FLOAT", "tensorShape": {"dim": [{"size": "16"}]}}}}}, {"name": "StatefulPartitionedCall/mobile_net_v3_large/bottle_neck/depthwise_conv2d/depthwise_weights", "op": "Const", "attr": {"value": {"tensor": {"dtype": "DT_FLOAT", "tensorShape": {"dim": [{"size": "3"}, {"size": "3"}, {"size": "16"}, {"size": "1"}]}}}, "dtype": {"type": "DT_FLOAT"}}}, {"name": "StatefulPartitionedCall/mobile_net_v3_large/bottle_neck/depthwise_conv2d/depthwise_bn_offset", "op": "Const", "attr": {"dtype": {"type": "DT_FLOAT"}, "value": {"tensor": {"dtype": "DT_FLOAT", "tensorShape": {"dim": [{"size": "16"}]}}}}}, {"name": "StatefulPartitionedCall/mobile_net_v3_large/bottle_neck/conv2d_2/Conv2D_weights", "op": "Const", "attr": {"dtype": {"type": "DT_FLOAT"}, "value": {"tensor": {"dtype": "DT_FLOAT", "tensorShape": {"dim": [{"size": "1"}, {"size": "1"}, {"size": "16"}, {"size": "16"}]}}}}}, {"name": "StatefulPartitionedCall/mobile_net_v3_large/bottle_neck_13/conv2d_28/Conv2D_weights", "op": "Const", "attr": {"dtype": {"type": "DT_FLOAT"}, "value": {"tensor": {"dtype": "DT_FLOAT", "tensorShape": {"dim": [{"size": "1"}, {"size": "1"}, {"size": "960"}, {"size": "160"}]}}}}}, {"name": "StatefulPartitionedCall/mobile_net_v3_large/bottle_neck/conv2d_2/Conv2D_bn_offset", "op": "Const", "attr": {"value": {"tensor": {"dtype": "DT_FLOAT", "tensorShape": {"dim": [{"size": "16"}]}}}, "dtype": {"type": "DT_FLOAT"}}}, {"name": "StatefulPartitionedCall/mobile_net_v3_large/bottle_neck_1/conv2d_3/Conv2D_weights", "op": "Const", "attr": {"dtype": {"type": "DT_FLOAT"}, "value": {"tensor": {"dtype": "DT_FLOAT", "tensorShape": {"dim": [{"size": "1"}, {"size": "1"}, {"size": "16"}, {"size": "64"}]}}}}}, {"name": "StatefulPartitionedCall/mobile_net_v3_large/bottle_neck_1/conv2d_3/Conv2D_bn_offset", "op": "Const", "attr": {"dtype": {"type": "DT_FLOAT"}, "value": {"tensor": {"dtype": "DT_FLOAT", "tensorShape": {"dim": [{"size": "64"}]}}}}}, {"name": "StatefulPartitionedCall/mobile_net_v3_large/bottle_neck_13/conv2d_28/Conv2D_bn_offset", "op": "Const", "attr": {"dtype": {"type": "DT_FLOAT"}, "value": {"tensor": {"dtype": "DT_FLOAT", "tensorShape": {"dim": [{"size": "160"}]}}}}}, {"name": "StatefulPartitionedCall/mobile_net_v3_large/bottle_neck_1/depthwise_conv2d_1/depthwise_weights", "op": "Const", "attr": {"dtype": {"type": "DT_FLOAT"}, "value": {"tensor": {"dtype": "DT_FLOAT", "tensorShape": {"dim": [{"size": "3"}, {"size": "3"}, {"size": "64"}, {"size": "1"}]}}}}}, {"name": "StatefulPartitionedCall/mobile_net_v3_large/bottle_neck_1/depthwise_conv2d_1/depthwise_bn_offset", "op": "Const", "attr": {"dtype": {"type": "DT_FLOAT"}, "value": {"tensor": {"dtype": "DT_FLOAT", "tensorShape": {"dim": [{"size": "64"}]}}}}}, {"name": "StatefulPartitionedCall/mobile_net_v3_large/bottle_neck_1/conv2d_4/Conv2D_weights", "op": "Const", "attr": {"value": {"tensor": {"dtype": "DT_FLOAT", "tensorShape": {"dim": [{"size": "1"}, {"size": "1"}, {"size": "64"}, {"size": "24"}]}}}, "dtype": {"type": "DT_FLOAT"}}}, {"name": "StatefulPartitionedCall/mobile_net_v3_large/bottle_neck_1/conv2d_4/Conv2D_bn_offset", "op": "Const", "attr": {"value": {"tensor": {"dtype": "DT_FLOAT", "tensorShape": {"dim": [{"size": "24"}]}}}, "dtype": {"type": "DT_FLOAT"}}}, {"name": "StatefulPartitionedCall/mobile_net_v3_large/bottle_neck_2/conv2d_5/Conv2D_weights", "op": "Const", "attr": {"value": {"tensor": {"dtype": "DT_FLOAT", "tensorShape": {"dim": [{"size": "1"}, {"size": "1"}, {"size": "24"}, {"size": "72"}]}}}, "dtype": {"type": "DT_FLOAT"}}}, {"name": "StatefulPartitionedCall/mobile_net_v3_large/bottle_neck_2/conv2d_5/Conv2D_bn_offset", "op": "Const", "attr": {"value": {"tensor": {"dtype": "DT_FLOAT", "tensorShape": {"dim": [{"size": "72"}]}}}, "dtype": {"type": "DT_FLOAT"}}}, {"name": "StatefulPartitionedCall/mobile_net_v3_large/bottle_neck_14/conv2d_29/Conv2D_weights", "op": "Const", "attr": {"value": {"tensor": {"dtype": "DT_FLOAT", "tensorShape": {"dim": [{"size": "1"}, {"size": "1"}, {"size": "160"}, {"size": "960"}]}}}, "dtype": {"type": "DT_FLOAT"}}}, {"name": "StatefulPartitionedCall/mobile_net_v3_large/bottle_neck_2/depthwise_conv2d_2/depthwise_weights", "op": "Const", "attr": {"value": {"tensor": {"dtype": "DT_FLOAT", "tensorShape": {"dim": [{"size": "3"}, {"size": "3"}, {"size": "72"}, {"size": "1"}]}}}, "dtype": {"type": "DT_FLOAT"}}}, {"name": "StatefulPartitionedCall/mobile_net_v3_large/bottle_neck_2/depthwise_conv2d_2/depthwise_bn_offset", "op": "Const", "attr": {"dtype": {"type": "DT_FLOAT"}, "value": {"tensor": {"dtype": "DT_FLOAT", "tensorShape": {"dim": [{"size": "72"}]}}}}}, {"name": "StatefulPartitionedCall/mobile_net_v3_large/bottle_neck_2/conv2d_6/Conv2D_weights", "op": "Const", "attr": {"dtype": {"type": "DT_FLOAT"}, "value": {"tensor": {"dtype": "DT_FLOAT", "tensorShape": {"dim": [{"size": "1"}, {"size": "1"}, {"size": "72"}, {"size": "24"}]}}}}}, {"name": "StatefulPartitionedCall/mobile_net_v3_large/bottle_neck_2/conv2d_6/Conv2D_bn_offset", "op": "Const", "attr": {"dtype": {"type": "DT_FLOAT"}, "value": {"tensor": {"dtype": "DT_FLOAT", "tensorShape": {"dim": [{"size": "24"}]}}}}}, {"name": "StatefulPartitionedCall/mobile_net_v3_large/bottle_neck_3/conv2d_7/Conv2D_weights", "op": "Const", "attr": {"value": {"tensor": {"dtype": "DT_FLOAT", "tensorShape": {"dim": [{"size": "1"}, {"size": "1"}, {"size": "24"}, {"size": "72"}]}}}, "dtype": {"type": "DT_FLOAT"}}}, {"name": "StatefulPartitionedCall/mobile_net_v3_large/bottle_neck_14/conv2d_29/Conv2D_bn_offset", "op": "Const", "attr": {"value": {"tensor": {"dtype": "DT_FLOAT", "tensorShape": {"dim": [{"size": "960"}]}}}, "dtype": {"type": "DT_FLOAT"}}}, {"name": "StatefulPartitionedCall/mobile_net_v3_large/bottle_neck_3/conv2d_7/Conv2D_bn_offset", "op": "Const", "attr": {"dtype": {"type": "DT_FLOAT"}, "value": {"tensor": {"dtype": "DT_FLOAT", "tensorShape": {"dim": [{"size": "72"}]}}}}}, {"name": "StatefulPartitionedCall/mobile_net_v3_large/bottle_neck_3/depthwise_conv2d_3/depthwise_weights", "op": "Const", "attr": {"value": {"tensor": {"dtype": "DT_FLOAT", "tensorShape": {"dim": [{"size": "5"}, {"size": "5"}, {"size": "72"}, {"size": "1"}]}}}, "dtype": {"type": "DT_FLOAT"}}}, {"name": "StatefulPartitionedCall/mobile_net_v3_large/bottle_neck_3/depthwise_conv2d_3/depthwise_bn_offset", "op": "Const", "attr": {"value": {"tensor": {"dtype": "DT_FLOAT", "tensorShape": {"dim": [{"size": "72"}]}}}, "dtype": {"type": "DT_FLOAT"}}}, {"name": "StatefulPartitionedCall/mobile_net_v3_large/bottle_neck_3/conv2d_8/Conv2D_weights", "op": "Const", "attr": {"dtype": {"type": "DT_FLOAT"}, "value": {"tensor": {"dtype": "DT_FLOAT", "tensorShape": {"dim": [{"size": "1"}, {"size": "1"}, {"size": "72"}, {"size": "40"}]}}}}}, {"name": "StatefulPartitionedCall/mobile_net_v3_large/bottle_neck_3/conv2d_8/Conv2D_bn_offset", "op": "Const", "attr": {"dtype": {"type": "DT_FLOAT"}, "value": {"tensor": {"dtype": "DT_FLOAT", "tensorShape": {"dim": [{"size": "40"}]}}}}}, {"name": "StatefulPartitionedCall/mobile_net_v3_large/bottle_neck_4/conv2d_9/Conv2D_weights", "op": "Const", "attr": {"dtype": {"type": "DT_FLOAT"}, "value": {"tensor": {"dtype": "DT_FLOAT", "tensorShape": {"dim": [{"size": "1"}, {"size": "1"}, {"size": "40"}, {"size": "120"}]}}}}}, {"name": "StatefulPartitionedCall/mobile_net_v3_large/bottle_neck_14/depthwise_conv2d_14/depthwise_weights", "op": "Const", "attr": {"dtype": {"type": "DT_FLOAT"}, "value": {"tensor": {"dtype": "DT_FLOAT", "tensorShape": {"dim": [{"size": "3"}, {"size": "3"}, {"size": "960"}, {"size": "1"}]}}}}}, {"name": "StatefulPartitionedCall/mobile_net_v3_large/bottle_neck_4/conv2d_9/Conv2D_bn_offset", "op": "Const", "attr": {"value": {"tensor": {"dtype": "DT_FLOAT", "tensorShape": {"dim": [{"size": "120"}]}}}, "dtype": {"type": "DT_FLOAT"}}}, {"name": "StatefulPartitionedCall/mobile_net_v3_large/bottle_neck_4/depthwise_conv2d_4/depthwise_weights", "op": "Const", "attr": {"dtype": {"type": "DT_FLOAT"}, "value": {"tensor": {"dtype": "DT_FLOAT", "tensorShape": {"dim": [{"size": "5"}, {"size": "5"}, {"size": "120"}, {"size": "1"}]}}}}}, {"name": "StatefulPartitionedCall/mobile_net_v3_large/bottle_neck_4/depthwise_conv2d_4/depthwise_bn_offset", "op": "Const", "attr": {"dtype": {"type": "DT_FLOAT"}, "value": {"tensor": {"dtype": "DT_FLOAT", "tensorShape": {"dim": [{"size": "120"}]}}}}}, {"name": "StatefulPartitionedCall/mobile_net_v3_large/bottle_neck_14/depthwise_conv2d_14/depthwise_bn_offset", "op": "Const", "attr": {"value": {"tensor": {"dtype": "DT_FLOAT", "tensorShape": {"dim": [{"size": "960"}]}}}, "dtype": {"type": "DT_FLOAT"}}}, {"name": "StatefulPartitionedCall/mobile_net_v3_large/bottle_neck_4/conv2d_10/Conv2D_weights", "op": "Const", "attr": {"dtype": {"type": "DT_FLOAT"}, "value": {"tensor": {"dtype": "DT_FLOAT", "tensorShape": {"dim": [{"size": "1"}, {"size": "1"}, {"size": "120"}, {"size": "40"}]}}}}}, {"name": "StatefulPartitionedCall/mobile_net_v3_large/bottle_neck_4/conv2d_10/Conv2D_bn_offset", "op": "Const", "attr": {"dtype": {"type": "DT_FLOAT"}, "value": {"tensor": {"dtype": "DT_FLOAT", "tensorShape": {"dim": [{"size": "40"}]}}}}}, {"name": "StatefulPartitionedCall/mobile_net_v3_large/bottle_neck_5/conv2d_11/Conv2D_weights", "op": "Const", "attr": {"value": {"tensor": {"dtype": "DT_FLOAT", "tensorShape": {"dim": [{"size": "1"}, {"size": "1"}, {"size": "40"}, {"size": "120"}]}}}, "dtype": {"type": "DT_FLOAT"}}}, {"name": "StatefulPartitionedCall/mobile_net_v3_large/bottle_neck_5/conv2d_11/Conv2D_bn_offset", "op": "Const", "attr": {"value": {"tensor": {"dtype": "DT_FLOAT", "tensorShape": {"dim": [{"size": "120"}]}}}, "dtype": {"type": "DT_FLOAT"}}}, {"name": "StatefulPartitionedCall/mobile_net_v3_large/bottle_neck_5/depthwise_conv2d_5/depthwise_weights", "op": "Const", "attr": {"value": {"tensor": {"dtype": "DT_FLOAT", "tensorShape": {"dim": [{"size": "5"}, {"size": "5"}, {"size": "120"}, {"size": "1"}]}}}, "dtype": {"type": "DT_FLOAT"}}}, {"name": "StatefulPartitionedCall/mobile_net_v3_large/bottle_neck_5/depthwise_conv2d_5/depthwise_bn_offset", "op": "Const", "attr": {"value": {"tensor": {"dtype": "DT_FLOAT", "tensorShape": {"dim": [{"size": "120"}]}}}, "dtype": {"type": "DT_FLOAT"}}}, {"name": "StatefulPartitionedCall/mobile_net_v3_large/bottle_neck_5/conv2d_12/Conv2D_weights", "op": "Const", "attr": {"dtype": {"type": "DT_FLOAT"}, "value": {"tensor": {"dtype": "DT_FLOAT", "tensorShape": {"dim": [{"size": "1"}, {"size": "1"}, {"size": "120"}, {"size": "40"}]}}}}}, {"name": "StatefulPartitionedCall/mobile_net_v3_large/bottle_neck_5/conv2d_12/Conv2D_bn_offset", "op": "Const", "attr": {"value": {"tensor": {"dtype": "DT_FLOAT", "tensorShape": {"dim": [{"size": "40"}]}}}, "dtype": {"type": "DT_FLOAT"}}}, {"name": "StatefulPartitionedCall/mobile_net_v3_large/bottle_neck_6/conv2d_13/Conv2D_weights", "op": "Const", "attr": {"dtype": {"type": "DT_FLOAT"}, "value": {"tensor": {"dtype": "DT_FLOAT", "tensorShape": {"dim": [{"size": "1"}, {"size": "1"}, {"size": "40"}, {"size": "240"}]}}}}}, {"name": "StatefulPartitionedCall/mobile_net_v3_large/bottle_neck_6/conv2d_13/Conv2D_bn_offset", "op": "Const", "attr": {"dtype": {"type": "DT_FLOAT"}, "value": {"tensor": {"dtype": "DT_FLOAT", "tensorShape": {"dim": [{"size": "240"}]}}}}}, {"name": "StatefulPartitionedCall/mobile_net_v3_large/bottle_neck_6/depthwise_conv2d_6/depthwise_weights", "op": "Const", "attr": {"dtype": {"type": "DT_FLOAT"}, "value": {"tensor": {"dtype": "DT_FLOAT", "tensorShape": {"dim": [{"size": "3"}, {"size": "3"}, {"size": "240"}, {"size": "1"}]}}}}}, {"name": "StatefulPartitionedCall/mobile_net_v3_large/bottle_neck_6/depthwise_conv2d_6/depthwise_bn_offset", "op": "Const", "attr": {"dtype": {"type": "DT_FLOAT"}, "value": {"tensor": {"dtype": "DT_FLOAT", "tensorShape": {"dim": [{"size": "240"}]}}}}}, {"name": "StatefulPartitionedCall/mobile_net_v3_large/bottle_neck_6/conv2d_14/Conv2D_weights", "op": "Const", "attr": {"value": {"tensor": {"dtype": "DT_FLOAT", "tensorShape": {"dim": [{"size": "1"}, {"size": "1"}, {"size": "240"}, {"size": "80"}]}}}, "dtype": {"type": "DT_FLOAT"}}}, {"name": "StatefulPartitionedCall/mobile_net_v3_large/bottle_neck_6/conv2d_14/Conv2D_bn_offset", "op": "Const", "attr": {"dtype": {"type": "DT_FLOAT"}, "value": {"tensor": {"dtype": "DT_FLOAT", "tensorShape": {"dim": [{"size": "80"}]}}}}}, {"name": "StatefulPartitionedCall/mobile_net_v3_large/bottle_neck_7/conv2d_15/Conv2D_weights", "op": "Const", "attr": {"value": {"tensor": {"dtype": "DT_FLOAT", "tensorShape": {"dim": [{"size": "1"}, {"size": "1"}, {"size": "80"}, {"size": "200"}]}}}, "dtype": {"type": "DT_FLOAT"}}}, {"name": "StatefulPartitionedCall/mobile_net_v3_large/bottle_neck_7/conv2d_15/Conv2D_bn_offset", "op": "Const", "attr": {"dtype": {"type": "DT_FLOAT"}, "value": {"tensor": {"dtype": "DT_FLOAT", "tensorShape": {"dim": [{"size": "200"}]}}}}}, {"name": "StatefulPartitionedCall/mobile_net_v3_large/bottle_neck_7/depthwise_conv2d_7/depthwise_weights", "op": "Const", "attr": {"dtype": {"type": "DT_FLOAT"}, "value": {"tensor": {"dtype": "DT_FLOAT", "tensorShape": {"dim": [{"size": "3"}, {"size": "3"}, {"size": "200"}, {"size": "1"}]}}}}}, {"name": "StatefulPartitionedCall/mobile_net_v3_large/bottle_neck_7/depthwise_conv2d_7/depthwise_bn_offset", "op": "Const", "attr": {"value": {"tensor": {"dtype": "DT_FLOAT", "tensorShape": {"dim": [{"size": "200"}]}}}, "dtype": {"type": "DT_FLOAT"}}}, {"name": "StatefulPartitionedCall/mobile_net_v3_large/bottle_neck_7/conv2d_16/Conv2D_weights", "op": "Const", "attr": {"dtype": {"type": "DT_FLOAT"}, "value": {"tensor": {"dtype": "DT_FLOAT", "tensorShape": {"dim": [{"size": "1"}, {"size": "1"}, {"size": "200"}, {"size": "80"}]}}}}}, {"name": "StatefulPartitionedCall/mobile_net_v3_large/bottle_neck_7/conv2d_16/Conv2D_bn_offset", "op": "Const", "attr": {"value": {"tensor": {"dtype": "DT_FLOAT", "tensorShape": {"dim": [{"size": "80"}]}}}, "dtype": {"type": "DT_FLOAT"}}}, {"name": "StatefulPartitionedCall/mobile_net_v3_large/bottle_neck_8/conv2d_17/Conv2D_weights", "op": "Const", "attr": {"dtype": {"type": "DT_FLOAT"}, "value": {"tensor": {"dtype": "DT_FLOAT", "tensorShape": {"dim": [{"size": "1"}, {"size": "1"}, {"size": "80"}, {"size": "184"}]}}}}}, {"name": "StatefulPartitionedCall/mobile_net_v3_large/bottle_neck_8/conv2d_17/Conv2D_bn_offset", "op": "Const", "attr": {"value": {"tensor": {"dtype": "DT_FLOAT", "tensorShape": {"dim": [{"size": "184"}]}}}, "dtype": {"type": "DT_FLOAT"}}}, {"name": "StatefulPartitionedCall/mobile_net_v3_large/bottle_neck_8/depthwise_conv2d_8/depthwise_weights", "op": "Const", "attr": {"dtype": {"type": "DT_FLOAT"}, "value": {"tensor": {"dtype": "DT_FLOAT", "tensorShape": {"dim": [{"size": "3"}, {"size": "3"}, {"size": "184"}, {"size": "1"}]}}}}}, {"name": "StatefulPartitionedCall/mobile_net_v3_large/bottle_neck_8/depthwise_conv2d_8/depthwise_bn_offset", "op": "Const", "attr": {"dtype": {"type": "DT_FLOAT"}, "value": {"tensor": {"dtype": "DT_FLOAT", "tensorShape": {"dim": [{"size": "184"}]}}}}}, {"name": "StatefulPartitionedCall/mobile_net_v3_large/bottle_neck_8/conv2d_18/Conv2D_weights", "op": "Const", "attr": {"value": {"tensor": {"dtype": "DT_FLOAT", "tensorShape": {"dim": [{"size": "1"}, {"size": "1"}, {"size": "184"}, {"size": "80"}]}}}, "dtype": {"type": "DT_FLOAT"}}}, {"name": "StatefulPartitionedCall/mobile_net_v3_large/bottle_neck_8/conv2d_18/Conv2D_bn_offset", "op": "Const", "attr": {"dtype": {"type": "DT_FLOAT"}, "value": {"tensor": {"dtype": "DT_FLOAT", "tensorShape": {"dim": [{"size": "80"}]}}}}}, {"name": "StatefulPartitionedCall/mobile_net_v3_large/bottle_neck_9/conv2d_19/Conv2D_weights", "op": "Const", "attr": {"dtype": {"type": "DT_FLOAT"}, "value": {"tensor": {"dtype": "DT_FLOAT", "tensorShape": {"dim": [{"size": "1"}, {"size": "1"}, {"size": "80"}, {"size": "184"}]}}}}}, {"name": "StatefulPartitionedCall/mobile_net_v3_large/bottle_neck_9/conv2d_19/Conv2D_bn_offset", "op": "Const", "attr": {"value": {"tensor": {"dtype": "DT_FLOAT", "tensorShape": {"dim": [{"size": "184"}]}}}, "dtype": {"type": "DT_FLOAT"}}}, {"name": "StatefulPartitionedCall/mobile_net_v3_large/bottle_neck_9/depthwise_conv2d_9/depthwise_weights", "op": "Const", "attr": {"value": {"tensor": {"dtype": "DT_FLOAT", "tensorShape": {"dim": [{"size": "3"}, {"size": "3"}, {"size": "184"}, {"size": "1"}]}}}, "dtype": {"type": "DT_FLOAT"}}}, {"name": "StatefulPartitionedCall/mobile_net_v3_large/bottle_neck_9/depthwise_conv2d_9/depthwise_bn_offset", "op": "Const", "attr": {"value": {"tensor": {"dtype": "DT_FLOAT", "tensorShape": {"dim": [{"size": "184"}]}}}, "dtype": {"type": "DT_FLOAT"}}}, {"name": "StatefulPartitionedCall/mobile_net_v3_large/bottle_neck_9/conv2d_20/Conv2D_weights", "op": "Const", "attr": {"value": {"tensor": {"dtype": "DT_FLOAT", "tensorShape": {"dim": [{"size": "1"}, {"size": "1"}, {"size": "184"}, {"size": "80"}]}}}, "dtype": {"type": "DT_FLOAT"}}}, {"name": "StatefulPartitionedCall/mobile_net_v3_large/bottle_neck_9/conv2d_20/Conv2D_bn_offset", "op": "Const", "attr": {"value": {"tensor": {"dtype": "DT_FLOAT", "tensorShape": {"dim": [{"size": "80"}]}}}, "dtype": {"type": "DT_FLOAT"}}}, {"name": "StatefulPartitionedCall/mobile_net_v3_large/bottle_neck_10/conv2d_21/Conv2D_weights", "op": "Const", "attr": {"dtype": {"type": "DT_FLOAT"}, "value": {"tensor": {"dtype": "DT_FLOAT", "tensorShape": {"dim": [{"size": "1"}, {"size": "1"}, {"size": "80"}, {"size": "480"}]}}}}}, {"name": "StatefulPartitionedCall/mobile_net_v3_large/bottle_neck_14/conv2d_30/Conv2D_weights", "op": "Const", "attr": {"dtype": {"type": "DT_FLOAT"}, "value": {"tensor": {"dtype": "DT_FLOAT", "tensorShape": {"dim": [{"size": "1"}, {"size": "1"}, {"size": "960"}, {"size": "160"}]}}}}}, {"name": "StatefulPartitionedCall/mobile_net_v3_large/bottle_neck_10/conv2d_21/Conv2D_bn_offset", "op": "Const", "attr": {"dtype": {"type": "DT_FLOAT"}, "value": {"tensor": {"dtype": "DT_FLOAT", "tensorShape": {"dim": [{"size": "480"}]}}}}}, {"name": "StatefulPartitionedCall/mobile_net_v3_large/bottle_neck_10/depthwise_conv2d_10/depthwise_weights", "op": "Const", "attr": {"dtype": {"type": "DT_FLOAT"}, "value": {"tensor": {"dtype": "DT_FLOAT", "tensorShape": {"dim": [{"size": "3"}, {"size": "3"}, {"size": "480"}, {"size": "1"}]}}}}}, {"name": "StatefulPartitionedCall/mobile_net_v3_large/bottle_neck_10/depthwise_conv2d_10/depthwise_bn_offset", "op": "Const", "attr": {"dtype": {"type": "DT_FLOAT"}, "value": {"tensor": {"dtype": "DT_FLOAT", "tensorShape": {"dim": [{"size": "480"}]}}}}}, {"name": "StatefulPartitionedCall/mobile_net_v3_large/bottle_neck_14/conv2d_30/Conv2D_bn_offset", "op": "Const", "attr": {"value": {"tensor": {"dtype": "DT_FLOAT", "tensorShape": {"dim": [{"size": "160"}]}}}, "dtype": {"type": "DT_FLOAT"}}}, {"name": "StatefulPartitionedCall/mobile_net_v3_large/bottle_neck_10/conv2d_22/Conv2D_weights", "op": "Const", "attr": {"dtype": {"type": "DT_FLOAT"}, "value": {"tensor": {"dtype": "DT_FLOAT", "tensorShape": {"dim": [{"size": "1"}, {"size": "1"}, {"size": "480"}, {"size": "112"}]}}}}}, {"name": "StatefulPartitionedCall/mobile_net_v3_large/bottle_neck_10/conv2d_22/Conv2D_bn_offset", "op": "Const", "attr": {"dtype": {"type": "DT_FLOAT"}, "value": {"tensor": {"dtype": "DT_FLOAT", "tensorShape": {"dim": [{"size": "112"}]}}}}}, {"name": "StatefulPartitionedCall/mobile_net_v3_large/bottle_neck_11/conv2d_23/Conv2D_weights", "op": "Const", "attr": {"value": {"tensor": {"dtype": "DT_FLOAT", "tensorShape": {"dim": [{"size": "1"}, {"size": "1"}, {"size": "112"}, {"size": "672"}]}}}, "dtype": {"type": "DT_FLOAT"}}}, {"name": "StatefulPartitionedCall/mobile_net_v3_large/conv2d_31/Conv2D_weights", "op": "Const", "attr": {"value": {"tensor": {"dtype": "DT_FLOAT", "tensorShape": {"dim": [{"size": "1"}, {"size": "1"}, {"size": "160"}, {"size": "960"}]}}}, "dtype": {"type": "DT_FLOAT"}}}, {"name": "StatefulPartitionedCall/mobile_net_v3_large/bottle_neck_11/conv2d_23/Conv2D_bn_offset", "op": "Const", "attr": {"dtype": {"type": "DT_FLOAT"}, "value": {"tensor": {"dtype": "DT_FLOAT", "tensorShape": {"dim": [{"size": "672"}]}}}}}, {"name": "StatefulPartitionedCall/mobile_net_v3_large/bottle_neck_11/depthwise_conv2d_11/depthwise_weights", "op": "Const", "attr": {"dtype": {"type": "DT_FLOAT"}, "value": {"tensor": {"dtype": "DT_FLOAT", "tensorShape": {"dim": [{"size": "3"}, {"size": "3"}, {"size": "672"}, {"size": "1"}]}}}}}, {"name": "StatefulPartitionedCall/mobile_net_v3_large/bottle_neck_11/depthwise_conv2d_11/depthwise_bn_offset", "op": "Const", "attr": {"dtype": {"type": "DT_FLOAT"}, "value": {"tensor": {"dtype": "DT_FLOAT", "tensorShape": {"dim": [{"size": "672"}]}}}}}, {"name": "StatefulPartitionedCall/mobile_net_v3_large/conv2d_31/Conv2D_bn_offset", "op": "Const", "attr": {"dtype": {"type": "DT_FLOAT"}, "value": {"tensor": {"dtype": "DT_FLOAT", "tensorShape": {"dim": [{"size": "960"}]}}}}}, {"name": "StatefulPartitionedCall/mobile_net_v3_large/bottle_neck_11/conv2d_24/Conv2D_weights", "op": "Const", "attr": {"dtype": {"type": "DT_FLOAT"}, "value": {"tensor": {"dtype": "DT_FLOAT", "tensorShape": {"dim": [{"size": "1"}, {"size": "1"}, {"size": "672"}, {"size": "112"}]}}}}}, {"name": "StatefulPartitionedCall/mobile_net_v3_large/bottle_neck_11/conv2d_24/Conv2D_bn_offset", "op": "Const", "attr": {"value": {"tensor": {"dtype": "DT_FLOAT", "tensorShape": {"dim": [{"size": "112"}]}}}, "dtype": {"type": "DT_FLOAT"}}}, {"name": "StatefulPartitionedCall/mobile_net_v3_large/bottle_neck_12/conv2d_25/Conv2D_weights", "op": "Const", "attr": {"value": {"tensor": {"dtype": "DT_FLOAT", "tensorShape": {"dim": [{"size": "1"}, {"size": "1"}, {"size": "112"}, {"size": "672"}]}}}, "dtype": {"type": "DT_FLOAT"}}}, {"name": "StatefulPartitionedCall/mobile_net_v3_large/bottle_neck_12/conv2d_25/Conv2D_bn_offset", "op": "Const", "attr": {"value": {"tensor": {"dtype": "DT_FLOAT", "tensorShape": {"dim": [{"size": "672"}]}}}, "dtype": {"type": "DT_FLOAT"}}}, {"name": "StatefulPartitionedCall/mobile_net_v3_large/bottle_neck_12/depthwise_conv2d_12/depthwise_weights", "op": "Const", "attr": {"dtype": {"type": "DT_FLOAT"}, "value": {"tensor": {"dtype": "DT_FLOAT", "tensorShape": {"dim": [{"size": "3"}, {"size": "3"}, {"size": "672"}, {"size": "1"}]}}}}}, {"name": "StatefulPartitionedCall/mobile_net_v3_large/bottle_neck_12/depthwise_conv2d_12/depthwise_bn_offset", "op": "Const", "attr": {"dtype": {"type": "DT_FLOAT"}, "value": {"tensor": {"dtype": "DT_FLOAT", "tensorShape": {"dim": [{"size": "672"}]}}}}}, {"name": "StatefulPartitionedCall/mobile_net_v3_large/bottle_neck_12/conv2d_26/Conv2D_weights", "op": "Const", "attr": {"value": {"tensor": {"dtype": "DT_FLOAT", "tensorShape": {"dim": [{"size": "1"}, {"size": "1"}, {"size": "672"}, {"size": "160"}]}}}, "dtype": {"type": "DT_FLOAT"}}}, {"name": "StatefulPartitionedCall/mobile_net_v3_large/bottle_neck_12/conv2d_26/Conv2D_bn_offset", "op": "Const", "attr": {"value": {"tensor": {"dtype": "DT_FLOAT", "tensorShape": {"dim": [{"size": "160"}]}}}, "dtype": {"type": "DT_FLOAT"}}}, {"name": "StatefulPartitionedCall/mobile_net_v3_large/bottle_neck_13/conv2d_27/Conv2D_weights", "op": "Const", "attr": {"value": {"tensor": {"dtype": "DT_FLOAT", "tensorShape": {"dim": [{"size": "1"}, {"size": "1"}, {"size": "160"}, {"size": "960"}]}}}, "dtype": {"type": "DT_FLOAT"}}}, {"name": "StatefulPartitionedCall/mobile_net_v3_large/bottle_neck_13/conv2d_27/Conv2D_bn_offset", "op": "Const", "attr": {"dtype": {"type": "DT_FLOAT"}, "value": {"tensor": {"dtype": "DT_FLOAT", "tensorShape": {"dim": [{"size": "960"}]}}}}}, {"name": "StatefulPartitionedCall/mobile_net_v3_large/bottle_neck_13/depthwise_conv2d_13/depthwise_weights", "op": "Const", "attr": {"dtype": {"type": "DT_FLOAT"}, "value": {"tensor": {"dtype": "DT_FLOAT", "tensorShape": {"dim": [{"size": "3"}, {"size": "3"}, {"size": "960"}, {"size": "1"}]}}}}}, {"name": "StatefulPartitionedCall/mobile_net_v3_large/bottle_neck_13/depthwise_conv2d_13/depthwise_bn_offset", "op": "Const", "attr": {"dtype": {"type": "DT_FLOAT"}, "value": {"tensor": {"dtype": "DT_FLOAT", "tensorShape": {"dim": [{"size": "960"}]}}}}}, {"name": "StatefulPartitionedCall/mobile_net_v3_large/batch_normalization/FusedBatchNormV3", "op": "_FusedConv2D", "input": ["input_1", "StatefulPartitionedCall/mobile_net_v3_large/conv2d/Conv2D_weights", "StatefulPartitionedCall/mobile_net_v3_large/conv2d/Conv2D_bn_offset"], "device": "/device:CPU:0", "attr": {"use_cudnn_on_gpu": {"b": true}, "dilations": {"list": {"i": ["1", "1", "1", "1"]}}, "num_args": {"i": "1"}, "explicit_paddings": {"list": {}}, "epsilon": {"f": 0.0}, "fused_ops": {"list": {"s": ["Qmlhc0FkZA=="]}}, "strides": {"list": {"i": ["1", "1", "1", "1"]}}, "padding": {"s": "U0FNRQ=="}, "data_format": {"s": "TkhXQw=="}, "T": {"type": "DT_FLOAT"}}}, {"name": "StatefulPartitionedCall/mobile_net_v3_large/truediv", "op": "Mul", "input": ["ConstantFolding/StatefulPartitionedCall/mobile_net_v3_large/truediv_recip", "StatefulPartitionedCall/mobile_net_v3_large/batch_normalization/FusedBatchNormV3"], "attr": {"_grappler_ArithmeticOptimizer_MinimizeBroadcasts": {"b": true}, "T": {"type": "DT_FLOAT"}}}, {"name": "StatefulPartitionedCall/mobile_net_v3_large/add", "op": "AddV2", "input": ["StatefulPartitionedCall/mobile_net_v3_large/batch_normalization/FusedBatchNormV3", "StatefulPartitionedCall/mobile_net_v3_large/add/y"], "attr": {"T": {"type": "DT_FLOAT"}}}, {"name": "StatefulPartitionedCall/mobile_net_v3_large/Relu6", "op": "Relu6", "input": ["StatefulPartitionedCall/mobile_net_v3_large/add"], "attr": {"T": {"type": "DT_FLOAT"}}}, {"name": "StatefulPartitionedCall/mobile_net_v3_large/mul", "op": "Mul", "input": ["StatefulPartitionedCall/mobile_net_v3_large/truediv", "StatefulPartitionedCall/mobile_net_v3_large/Relu6"], "attr": {"_grappler_ArithmeticOptimizer_MinimizeBroadcasts": {"b": true}, "T": {"type": "DT_FLOAT"}}}, {"name": "StatefulPartitionedCall/mobile_net_v3_large/bottle_neck/Relu6", "op": "_FusedConv2D", "input": ["StatefulPartitionedCall/mobile_net_v3_large/mul", "StatefulPartitionedCall/mobile_net_v3_large/bottle_neck/conv2d_1/Conv2D_weights", "StatefulPartitionedCall/mobile_net_v3_large/bottle_neck/conv2d_1/Conv2D_bn_offset"], "device": "/device:CPU:0", "attr": {"use_cudnn_on_gpu": {"b": true}, "dilations": {"list": {"i": ["1", "1", "1", "1"]}}, "num_args": {"i": "1"}, "explicit_paddings": {"list": {}}, "epsilon": {"f": 0.0}, "fused_ops": {"list": {"s": ["Qmlhc0FkZA==", "UmVsdTY="]}}, "strides": {"list": {"i": ["1", "1", "1", "1"]}}, "padding": {"s": "U0FNRQ=="}, "data_format": {"s": "TkhXQw=="}, "T": {"type": "DT_FLOAT"}}}, {"name": "StatefulPartitionedCall/mobile_net_v3_large/bottle_neck/depthwise_conv2d/depthwise", "op": "FusedDepthwiseConv2dNative", "input": ["StatefulPartitionedCall/mobile_net_v3_large/bottle_neck/Relu6", "StatefulPartitionedCall/mobile_net_v3_large/bottle_neck/depthwise_conv2d/depthwise_weights", "StatefulPartitionedCall/mobile_net_v3_large/bottle_neck/depthwise_conv2d/depthwise_bn_offset"], "attr": {"data_format": {"s": "TkhXQw=="}, "dilations": {"list": {"i": ["1", "1", "1", "1"]}}, "num_args": {"i": "1"}, "fused_ops": {"list": {"s": ["Qmlhc0FkZA==", "UmVsdTY="]}}, "padding": {"s": "U0FNRQ=="}, "explicit_paddings": {"list": {}}, "T": {"type": "DT_FLOAT"}, "strides": {"list": {"i": ["1", "1", "1", "1"]}}}}, {"name": "StatefulPartitionedCall/mobile_net_v3_large/bottle_neck/batch_normalization_3/FusedBatchNormV3", "op": "_FusedConv2D", "input": ["StatefulPartitionedCall/mobile_net_v3_large/bottle_neck/depthwise_conv2d/depthwise", "StatefulPartitionedCall/mobile_net_v3_large/bottle_neck/conv2d_2/Conv2D_weights", "StatefulPartitionedCall/mobile_net_v3_large/bottle_neck/conv2d_2/Conv2D_bn_offset"], "device": "/device:CPU:0", "attr": {"use_cudnn_on_gpu": {"b": true}, "dilations": {"list": {"i": ["1", "1", "1", "1"]}}, "num_args": {"i": "1"}, "explicit_paddings": {"list": {}}, "epsilon": {"f": 0.0}, "fused_ops": {"list": {"s": ["Qmlhc0FkZA=="]}}, "strides": {"list": {"i": ["1", "1", "1", "1"]}}, "padding": {"s": "U0FNRQ=="}, "data_format": {"s": "TkhXQw=="}, "T": {"type": "DT_FLOAT"}}}, {"name": "StatefulPartitionedCall/mobile_net_v3_large/bottle_neck/add/add", "op": "AddV2", "input": ["StatefulPartitionedCall/mobile_net_v3_large/bottle_neck/batch_normalization_3/FusedBatchNormV3", "StatefulPartitionedCall/mobile_net_v3_large/mul"], "attr": {"T": {"type": "DT_FLOAT"}}}, {"name": "StatefulPartitionedCall/mobile_net_v3_large/bottle_neck_1/Relu6", "op": "_FusedConv2D", "input": ["StatefulPartitionedCall/mobile_net_v3_large/bottle_neck/add/add", "StatefulPartitionedCall/mobile_net_v3_large/bottle_neck_1/conv2d_3/Conv2D_weights", "StatefulPartitionedCall/mobile_net_v3_large/bottle_neck_1/conv2d_3/Conv2D_bn_offset"], "device": "/device:CPU:0", "attr": {"data_format": {"s": "TkhXQw=="}, "use_cudnn_on_gpu": {"b": true}, "dilations": {"list": {"i": ["1", "1", "1", "1"]}}, "fused_ops": {"list": {"s": ["Qmlhc0FkZA==", "UmVsdTY="]}}, "num_args": {"i": "1"}, "padding": {"s": "U0FNRQ=="}, "explicit_paddings": {"list": {}}, "epsilon": {"f": 0.0}, "T": {"type": "DT_FLOAT"}, "strides": {"list": {"i": ["1", "1", "1", "1"]}}}}, {"name": "StatefulPartitionedCall/mobile_net_v3_large/bottle_neck_1/depthwise_conv2d_1/depthwise", "op": "FusedDepthwiseConv2dNative", "input": ["StatefulPartitionedCall/mobile_net_v3_large/bottle_neck_1/Relu6", "StatefulPartitionedCall/mobile_net_v3_large/bottle_neck_1/depthwise_conv2d_1/depthwise_weights", "StatefulPartitionedCall/mobile_net_v3_large/bottle_neck_1/depthwise_conv2d_1/depthwise_bn_offset"], "attr": {"explicit_paddings": {"list": {}}, "strides": {"list": {"i": ["1", "2", "2", "1"]}}, "fused_ops": {"list": {"s": ["Qmlhc0FkZA==", "UmVsdTY="]}}, "data_format": {"s": "TkhXQw=="}, "T": {"type": "DT_FLOAT"}, "padding": {"s": "U0FNRQ=="}, "dilations": {"list": {"i": ["1", "1", "1", "1"]}}, "num_args": {"i": "1"}}}, {"name": "StatefulPartitionedCall/mobile_net_v3_large/bottle_neck_1/batch_normalization_6/FusedBatchNormV3", "op": "_FusedConv2D", "input": ["StatefulPartitionedCall/mobile_net_v3_large/bottle_neck_1/depthwise_conv2d_1/depthwise", "StatefulPartitionedCall/mobile_net_v3_large/bottle_neck_1/conv2d_4/Conv2D_weights", "StatefulPartitionedCall/mobile_net_v3_large/bottle_neck_1/conv2d_4/Conv2D_bn_offset"], "device": "/device:CPU:0", "attr": {"explicit_paddings": {"list": {}}, "strides": {"list": {"i": ["1", "1", "1", "1"]}}, "fused_ops": {"list": {"s": ["Qmlhc0FkZA=="]}}, "data_format": {"s": "TkhXQw=="}, "T": {"type": "DT_FLOAT"}, "padding": {"s": "U0FNRQ=="}, "use_cudnn_on_gpu": {"b": true}, "num_args": {"i": "1"}, "dilations": {"list": {"i": ["1", "1", "1", "1"]}}, "epsilon": {"f": 0.0}}}, {"name": "StatefulPartitionedCall/mobile_net_v3_large/bottle_neck_2/Relu6", "op": "_FusedConv2D", "input": ["StatefulPartitionedCall/mobile_net_v3_large/bottle_neck_1/batch_normalization_6/FusedBatchNormV3", "StatefulPartitionedCall/mobile_net_v3_large/bottle_neck_2/conv2d_5/Conv2D_weights", "StatefulPartitionedCall/mobile_net_v3_large/bottle_neck_2/conv2d_5/Conv2D_bn_offset"], "device": "/device:CPU:0", "attr": {"explicit_paddings": {"list": {}}, "strides": {"list": {"i": ["1", "1", "1", "1"]}}, "fused_ops": {"list": {"s": ["Qmlhc0FkZA==", "UmVsdTY="]}}, "data_format": {"s": "TkhXQw=="}, "T": {"type": "DT_FLOAT"}, "padding": {"s": "U0FNRQ=="}, "use_cudnn_on_gpu": {"b": true}, "num_args": {"i": "1"}, "dilations": {"list": {"i": ["1", "1", "1", "1"]}}, "epsilon": {"f": 0.0}}}, {"name": "StatefulPartitionedCall/mobile_net_v3_large/bottle_neck_2/depthwise_conv2d_2/depthwise", "op": "FusedDepthwiseConv2dNative", "input": ["StatefulPartitionedCall/mobile_net_v3_large/bottle_neck_2/Relu6", "StatefulPartitionedCall/mobile_net_v3_large/bottle_neck_2/depthwise_conv2d_2/depthwise_weights", "StatefulPartitionedCall/mobile_net_v3_large/bottle_neck_2/depthwise_conv2d_2/depthwise_bn_offset"], "attr": {"data_format": {"s": "TkhXQw=="}, "dilations": {"list": {"i": ["1", "1", "1", "1"]}}, "num_args": {"i": "1"}, "fused_ops": {"list": {"s": ["Qmlhc0FkZA==", "UmVsdTY="]}}, "padding": {"s": "U0FNRQ=="}, "explicit_paddings": {"list": {}}, "T": {"type": "DT_FLOAT"}, "strides": {"list": {"i": ["1", "1", "1", "1"]}}}}, {"name": "StatefulPartitionedCall/mobile_net_v3_large/bottle_neck_2/batch_normalization_9/FusedBatchNormV3", "op": "_FusedConv2D", "input": ["StatefulPartitionedCall/mobile_net_v3_large/bottle_neck_2/depthwise_conv2d_2/depthwise", "StatefulPartitionedCall/mobile_net_v3_large/bottle_neck_2/conv2d_6/Conv2D_weights", "StatefulPartitionedCall/mobile_net_v3_large/bottle_neck_2/conv2d_6/Conv2D_bn_offset"], "device": "/device:CPU:0", "attr": {"explicit_paddings": {"list": {}}, "strides": {"list": {"i": ["1", "1", "1", "1"]}}, "fused_ops": {"list": {"s": ["Qmlhc0FkZA=="]}}, "data_format": {"s": "TkhXQw=="}, "T": {"type": "DT_FLOAT"}, "padding": {"s": "U0FNRQ=="}, "use_cudnn_on_gpu": {"b": true}, "num_args": {"i": "1"}, "dilations": {"list": {"i": ["1", "1", "1", "1"]}}, "epsilon": {"f": 0.0}}}, {"name": "StatefulPartitionedCall/mobile_net_v3_large/bottle_neck_2/add_1/add", "op": "AddV2", "input": ["StatefulPartitionedCall/mobile_net_v3_large/bottle_neck_2/batch_normalization_9/FusedBatchNormV3", "StatefulPartitionedCall/mobile_net_v3_large/bottle_neck_1/batch_normalization_6/FusedBatchNormV3"], "attr": {"T": {"type": "DT_FLOAT"}}}, {"name": "StatefulPartitionedCall/mobile_net_v3_large/bottle_neck_3/Relu6", "op": "_FusedConv2D", "input": ["StatefulPartitionedCall/mobile_net_v3_large/bottle_neck_2/add_1/add", "StatefulPartitionedCall/mobile_net_v3_large/bottle_neck_3/conv2d_7/Conv2D_weights", "StatefulPartitionedCall/mobile_net_v3_large/bottle_neck_3/conv2d_7/Conv2D_bn_offset"], "device": "/device:CPU:0", "attr": {"epsilon": {"f": 0.0}, "T": {"type": "DT_FLOAT"}, "padding": {"s": "U0FNRQ=="}, "explicit_paddings": {"list": {}}, "strides": {"list": {"i": ["1", "1", "1", "1"]}}, "data_format": {"s": "TkhXQw=="}, "use_cudnn_on_gpu": {"b": true}, "num_args": {"i": "1"}, "dilations": {"list": {"i": ["1", "1", "1", "1"]}}, "fused_ops": {"list": {"s": ["Qmlhc0FkZA==", "UmVsdTY="]}}}}, {"name": "StatefulPartitionedCall/mobile_net_v3_large/bottle_neck_3/depthwise_conv2d_3/depthwise", "op": "FusedDepthwiseConv2dNative", "input": ["StatefulPartitionedCall/mobile_net_v3_large/bottle_neck_3/Relu6", "StatefulPartitionedCall/mobile_net_v3_large/bottle_neck_3/depthwise_conv2d_3/depthwise_weights", "StatefulPartitionedCall/mobile_net_v3_large/bottle_neck_3/depthwise_conv2d_3/depthwise_bn_offset"], "attr": {"dilations": {"list": {"i": ["1", "1", "1", "1"]}}, "num_args": {"i": "1"}, "explicit_paddings": {"list": {}}, "strides": {"list": {"i": ["1", "2", "2", "1"]}}, "fused_ops": {"list": {"s": ["Qmlhc0FkZA==", "UmVsdTY="]}}, "padding": {"s": "U0FNRQ=="}, "data_format": {"s": "TkhXQw=="}, "T": {"type": "DT_FLOAT"}}}, {"name": "StatefulPartitionedCall/mobile_net_v3_large/bottle_neck_3/se_block_3/global_average_pooling2d_3/Mean", "op": "Mean", "input": ["StatefulPartitionedCall/mobile_net_v3_large/bottle_neck_3/depthwise_conv2d_3/depthwise", "StatefulPartitionedCall/mobile_net_v3_large/bottle_neck_3/se_block_3/global_average_pooling2d_3/Mean/reduction_indices"], "attr": {"Tidx": {"type": "DT_INT32"}, "T": {"type": "DT_FLOAT"}, "keep_dims": {"b": false}}}, {"name": "StatefulPartitionedCall/mobile_net_v3_large/bottle_neck_3/se_block_3/Relu", "op": "_FusedMatMul", "input": ["StatefulPartitionedCall/mobile_net_v3_large/bottle_neck_3/se_block_3/global_average_pooling2d_3/Mean", "unknown_71", "unknown_72"], "device": "/device:CPU:0", "attr": {"num_args": {"i": "1"}, "transpose_a": {"b": false}, "epsilon": {"f": 0.0}, "fused_ops": {"list": {"s": ["Qmlhc0FkZA==", "UmVsdQ=="]}}, "T": {"type": "DT_FLOAT"}, "transpose_b": {"b": false}}}, {"name": "StatefulPartitionedCall/mobile_net_v3_large/bottle_neck_3/se_block_3/dense_7/BiasAdd", "op": "_FusedMatMul", "input": ["StatefulPartitionedCall/mobile_net_v3_large/bottle_neck_3/se_block_3/Relu", "unknown_73", "unknown_74"], "device": "/device:CPU:0", "attr": {"num_args": {"i": "1"}, "transpose_a": {"b": false}, "epsilon": {"f": 0.0}, "fused_ops": {"list": {"s": ["Qmlhc0FkZA=="]}}, "T": {"type": "DT_FLOAT"}, "transpose_b": {"b": false}}}, {"name": "StatefulPartitionedCall/mobile_net_v3_large/bottle_neck_3/se_block_3/add", "op": "AddV2", "input": ["StatefulPartitionedCall/mobile_net_v3_large/bottle_neck_3/se_block_3/dense_7/BiasAdd", "StatefulPartitionedCall/mobile_net_v3_large/bottle_neck_3/se_block_3/add/y"], "attr": {"T": {"type": "DT_FLOAT"}}}, {"name": "StatefulPartitionedCall/mobile_net_v3_large/bottle_neck_3/se_block_3/Relu6", "op": "Relu6", "input": ["StatefulPartitionedCall/mobile_net_v3_large/bottle_neck_3/se_block_3/add"], "attr": {"T": {"type": "DT_FLOAT"}}}, {"name": "StatefulPartitionedCall/mobile_net_v3_large/bottle_neck_3/se_block_3/truediv", "op": "Mul", "input": ["StatefulPartitionedCall/mobile_net_v3_large/bottle_neck_3/se_block_3/Relu6", "ConstantFolding/StatefulPartitionedCall/mobile_net_v3_large/bottle_neck_3/se_block_3/truediv_recip"], "attr": {"T": {"type": "DT_FLOAT"}}}, {"name": "StatefulPartitionedCall/mobile_net_v3_large/bottle_neck_3/se_block_3/ExpandDims", "op": "ExpandDims", "input": ["StatefulPartitionedCall/mobile_net_v3_large/bottle_neck_3/se_block_3/truediv", "StatefulPartitionedCall/mobile_net_v3_large/bottle_neck_3/se_block_3/ExpandDims/dim"], "attr": {"Tdim": {"type": "DT_INT32"}, "T": {"type": "DT_FLOAT"}}}, {"name": "StatefulPartitionedCall/mobile_net_v3_large/bottle_neck_3/se_block_3/ExpandDims_1", "op": "ExpandDims", "input": ["StatefulPartitionedCall/mobile_net_v3_large/bottle_neck_3/se_block_3/ExpandDims", "StatefulPartitionedCall/mobile_net_v3_large/bottle_neck_3/se_block_3/ExpandDims_1/dim"], "attr": {"Tdim": {"type": "DT_INT32"}, "T": {"type": "DT_FLOAT"}}}, {"name": "StatefulPartitionedCall/mobile_net_v3_large/bottle_neck_3/se_block_3/mul", "op": "Mul", "input": ["StatefulPartitionedCall/mobile_net_v3_large/bottle_neck_3/depthwise_conv2d_3/depthwise", "StatefulPartitionedCall/mobile_net_v3_large/bottle_neck_3/se_block_3/ExpandDims_1"], "attr": {"T": {"type": "DT_FLOAT"}}}, {"name": "StatefulPartitionedCall/mobile_net_v3_large/bottle_neck_3/batch_normalization_12/FusedBatchNormV3", "op": "_FusedConv2D", "input": ["StatefulPartitionedCall/mobile_net_v3_large/bottle_neck_3/se_block_3/mul", "StatefulPartitionedCall/mobile_net_v3_large/bottle_neck_3/conv2d_8/Conv2D_weights", "StatefulPartitionedCall/mobile_net_v3_large/bottle_neck_3/conv2d_8/Conv2D_bn_offset"], "device": "/device:CPU:0", "attr": {"epsilon": {"f": 0.0}, "T": {"type": "DT_FLOAT"}, "padding": {"s": "U0FNRQ=="}, "explicit_paddings": {"list": {}}, "strides": {"list": {"i": ["1", "1", "1", "1"]}}, "data_format": {"s": "TkhXQw=="}, "use_cudnn_on_gpu": {"b": true}, "num_args": {"i": "1"}, "dilations": {"list": {"i": ["1", "1", "1", "1"]}}, "fused_ops": {"list": {"s": ["Qmlhc0FkZA=="]}}}}, {"name": "StatefulPartitionedCall/mobile_net_v3_large/bottle_neck_4/Relu6", "op": "_FusedConv2D", "input": ["StatefulPartitionedCall/mobile_net_v3_large/bottle_neck_3/batch_normalization_12/FusedBatchNormV3", "StatefulPartitionedCall/mobile_net_v3_large/bottle_neck_4/conv2d_9/Conv2D_weights", "StatefulPartitionedCall/mobile_net_v3_large/bottle_neck_4/conv2d_9/Conv2D_bn_offset"], "device": "/device:CPU:0", "attr": {"explicit_paddings": {"list": {}}, "strides": {"list": {"i": ["1", "1", "1", "1"]}}, "fused_ops": {"list": {"s": ["Qmlhc0FkZA==", "UmVsdTY="]}}, "data_format": {"s": "TkhXQw=="}, "T": {"type": "DT_FLOAT"}, "padding": {"s": "U0FNRQ=="}, "use_cudnn_on_gpu": {"b": true}, "num_args": {"i": "1"}, "dilations": {"list": {"i": ["1", "1", "1", "1"]}}, "epsilon": {"f": 0.0}}}, {"name": "StatefulPartitionedCall/mobile_net_v3_large/bottle_neck_4/depthwise_conv2d_4/depthwise", "op": "FusedDepthwiseConv2dNative", "input": ["StatefulPartitionedCall/mobile_net_v3_large/bottle_neck_4/Relu6", "StatefulPartitionedCall/mobile_net_v3_large/bottle_neck_4/depthwise_conv2d_4/depthwise_weights", "StatefulPartitionedCall/mobile_net_v3_large/bottle_neck_4/depthwise_conv2d_4/depthwise_bn_offset"], "attr": {"T": {"type": "DT_FLOAT"}, "explicit_paddings": {"list": {}}, "padding": {"s": "U0FNRQ=="}, "strides": {"list": {"i": ["1", "1", "1", "1"]}}, "data_format": {"s": "TkhXQw=="}, "dilations": {"list": {"i": ["1", "1", "1", "1"]}}, "num_args": {"i": "1"}, "fused_ops": {"list": {"s": ["Qmlhc0FkZA==", "UmVsdTY="]}}}}, {"name": "StatefulPartitionedCall/mobile_net_v3_large/bottle_neck_4/se_block_4/global_average_pooling2d_4/Mean", "op": "Mean", "input": ["StatefulPartitionedCall/mobile_net_v3_large/bottle_neck_4/depthwise_conv2d_4/depthwise", "StatefulPartitionedCall/mobile_net_v3_large/bottle_neck_4/se_block_4/global_average_pooling2d_4/Mean/reduction_indices"], "attr": {"Tidx": {"type": "DT_INT32"}, "T": {"type": "DT_FLOAT"}, "keep_dims": {"b": false}}}, {"name": "StatefulPartitionedCall/mobile_net_v3_large/bottle_neck_4/se_block_4/Relu", "op": "_FusedMatMul", "input": ["StatefulPartitionedCall/mobile_net_v3_large/bottle_neck_4/se_block_4/global_average_pooling2d_4/Mean", "unknown_93", "unknown_94"], "device": "/device:CPU:0", "attr": {"T": {"type": "DT_FLOAT"}, "epsilon": {"f": 0.0}, "transpose_a": {"b": false}, "transpose_b": {"b": false}, "num_args": {"i": "1"}, "fused_ops": {"list": {"s": ["Qmlhc0FkZA==", "UmVsdQ=="]}}}}, {"name": "StatefulPartitionedCall/mobile_net_v3_large/bottle_neck_4/se_block_4/dense_9/BiasAdd", "op": "_FusedMatMul", "input": ["StatefulPartitionedCall/mobile_net_v3_large/bottle_neck_4/se_block_4/Relu", "unknown_95", "unknown_96"], "device": "/device:CPU:0", "attr": {"num_args": {"i": "1"}, "transpose_a": {"b": false}, "epsilon": {"f": 0.0}, "fused_ops": {"list": {"s": ["Qmlhc0FkZA=="]}}, "T": {"type": "DT_FLOAT"}, "transpose_b": {"b": false}}}, {"name": "StatefulPartitionedCall/mobile_net_v3_large/bottle_neck_4/se_block_4/add", "op": "AddV2", "input": ["StatefulPartitionedCall/mobile_net_v3_large/bottle_neck_4/se_block_4/dense_9/BiasAdd", "StatefulPartitionedCall/mobile_net_v3_large/bottle_neck_4/se_block_4/add/y"], "attr": {"T": {"type": "DT_FLOAT"}}}, {"name": "StatefulPartitionedCall/mobile_net_v3_large/bottle_neck_4/se_block_4/Relu6", "op": "Relu6", "input": ["StatefulPartitionedCall/mobile_net_v3_large/bottle_neck_4/se_block_4/add"], "attr": {"T": {"type": "DT_FLOAT"}}}, {"name": "StatefulPartitionedCall/mobile_net_v3_large/bottle_neck_4/se_block_4/truediv", "op": "Mul", "input": ["StatefulPartitionedCall/mobile_net_v3_large/bottle_neck_4/se_block_4/Relu6", "ConstantFolding/StatefulPartitionedCall/mobile_net_v3_large/bottle_neck_4/se_block_4/truediv_recip"], "attr": {"T": {"type": "DT_FLOAT"}}}, {"name": "StatefulPartitionedCall/mobile_net_v3_large/bottle_neck_4/se_block_4/ExpandDims", "op": "ExpandDims", "input": ["StatefulPartitionedCall/mobile_net_v3_large/bottle_neck_4/se_block_4/truediv", "StatefulPartitionedCall/mobile_net_v3_large/bottle_neck_4/se_block_4/ExpandDims/dim"], "attr": {"Tdim": {"type": "DT_INT32"}, "T": {"type": "DT_FLOAT"}}}, {"name": "StatefulPartitionedCall/mobile_net_v3_large/bottle_neck_4/se_block_4/ExpandDims_1", "op": "ExpandDims", "input": ["StatefulPartitionedCall/mobile_net_v3_large/bottle_neck_4/se_block_4/ExpandDims", "StatefulPartitionedCall/mobile_net_v3_large/bottle_neck_4/se_block_4/ExpandDims_1/dim"], "attr": {"Tdim": {"type": "DT_INT32"}, "T": {"type": "DT_FLOAT"}}}, {"name": "StatefulPartitionedCall/mobile_net_v3_large/bottle_neck_4/se_block_4/mul", "op": "Mul", "input": ["StatefulPartitionedCall/mobile_net_v3_large/bottle_neck_4/depthwise_conv2d_4/depthwise", "StatefulPartitionedCall/mobile_net_v3_large/bottle_neck_4/se_block_4/ExpandDims_1"], "attr": {"T": {"type": "DT_FLOAT"}}}, {"name": "StatefulPartitionedCall/mobile_net_v3_large/bottle_neck_4/batch_normalization_15/FusedBatchNormV3", "op": "_FusedConv2D", "input": ["StatefulPartitionedCall/mobile_net_v3_large/bottle_neck_4/se_block_4/mul", "StatefulPartitionedCall/mobile_net_v3_large/bottle_neck_4/conv2d_10/Conv2D_weights", "StatefulPartitionedCall/mobile_net_v3_large/bottle_neck_4/conv2d_10/Conv2D_bn_offset"], "device": "/device:CPU:0", "attr": {"strides": {"list": {"i": ["1", "1", "1", "1"]}}, "epsilon": {"f": 0.0}, "T": {"type": "DT_FLOAT"}, "fused_ops": {"list": {"s": ["Qmlhc0FkZA=="]}}, "padding": {"s": "U0FNRQ=="}, "use_cudnn_on_gpu": {"b": true}, "data_format": {"s": "TkhXQw=="}, "num_args": {"i": "1"}, "dilations": {"list": {"i": ["1", "1", "1", "1"]}}, "explicit_paddings": {"list": {}}}}, {"name": "StatefulPartitionedCall/mobile_net_v3_large/bottle_neck_4/add_2/add", "op": "AddV2", "input": ["StatefulPartitionedCall/mobile_net_v3_large/bottle_neck_4/batch_normalization_15/FusedBatchNormV3", "StatefulPartitionedCall/mobile_net_v3_large/bottle_neck_3/batch_normalization_12/FusedBatchNormV3"], "attr": {"T": {"type": "DT_FLOAT"}}}, {"name": "StatefulPartitionedCall/mobile_net_v3_large/bottle_neck_5/Relu6", "op": "_FusedConv2D", "input": ["StatefulPartitionedCall/mobile_net_v3_large/bottle_neck_4/add_2/add", "StatefulPartitionedCall/mobile_net_v3_large/bottle_neck_5/conv2d_11/Conv2D_weights", "StatefulPartitionedCall/mobile_net_v3_large/bottle_neck_5/conv2d_11/Conv2D_bn_offset"], "device": "/device:CPU:0", "attr": {"data_format": {"s": "TkhXQw=="}, "use_cudnn_on_gpu": {"b": true}, "num_args": {"i": "1"}, "dilations": {"list": {"i": ["1", "1", "1", "1"]}}, "T": {"type": "DT_FLOAT"}, "fused_ops": {"list": {"s": ["Qmlhc0FkZA==", "UmVsdTY="]}}, "explicit_paddings": {"list": {}}, "strides": {"list": {"i": ["1", "1", "1", "1"]}}, "epsilon": {"f": 0.0}, "padding": {"s": "U0FNRQ=="}}}, {"name": "StatefulPartitionedCall/mobile_net_v3_large/bottle_neck_5/depthwise_conv2d_5/depthwise", "op": "FusedDepthwiseConv2dNative", "input": ["StatefulPartitionedCall/mobile_net_v3_large/bottle_neck_5/Relu6", "StatefulPartitionedCall/mobile_net_v3_large/bottle_neck_5/depthwise_conv2d_5/depthwise_weights", "StatefulPartitionedCall/mobile_net_v3_large/bottle_neck_5/depthwise_conv2d_5/depthwise_bn_offset"], "attr": {"padding": {"s": "U0FNRQ=="}, "num_args": {"i": "1"}, "dilations": {"list": {"i": ["1", "1", "1", "1"]}}, "explicit_paddings": {"list": {}}, "strides": {"list": {"i": ["1", "1", "1", "1"]}}, "T": {"type": "DT_FLOAT"}, "fused_ops": {"list": {"s": ["Qmlhc0FkZA==", "UmVsdTY="]}}, "data_format": {"s": "TkhXQw=="}}}, {"name": "StatefulPartitionedCall/mobile_net_v3_large/bottle_neck_5/se_block_5/global_average_pooling2d_5/Mean", "op": "Mean", "input": ["StatefulPartitionedCall/mobile_net_v3_large/bottle_neck_5/depthwise_conv2d_5/depthwise", "StatefulPartitionedCall/mobile_net_v3_large/bottle_neck_5/se_block_5/global_average_pooling2d_5/Mean/reduction_indices"], "attr": {"T": {"type": "DT_FLOAT"}, "Tidx": {"type": "DT_INT32"}, "keep_dims": {"b": false}}}, {"name": "StatefulPartitionedCall/mobile_net_v3_large/bottle_neck_5/se_block_5/Relu", "op": "_FusedMatMul", "input": ["StatefulPartitionedCall/mobile_net_v3_large/bottle_neck_5/se_block_5/global_average_pooling2d_5/Mean", "unknown_115", "unknown_116"], "device": "/device:CPU:0", "attr": {"transpose_b": {"b": false}, "num_args": {"i": "1"}, "T": {"type": "DT_FLOAT"}, "fused_ops": {"list": {"s": ["Qmlhc0FkZA==", "UmVsdQ=="]}}, "epsilon": {"f": 0.0}, "transpose_a": {"b": false}}}, {"name": "StatefulPartitionedCall/mobile_net_v3_large/bottle_neck_5/se_block_5/dense_11/BiasAdd", "op": "_FusedMatMul", "input": ["StatefulPartitionedCall/mobile_net_v3_large/bottle_neck_5/se_block_5/Relu", "unknown_117", "unknown_118"], "device": "/device:CPU:0", "attr": {"transpose_b": {"b": false}, "num_args": {"i": "1"}, "epsilon": {"f": 0.0}, "transpose_a": {"b": false}, "T": {"type": "DT_FLOAT"}, "fused_ops": {"list": {"s": ["Qmlhc0FkZA=="]}}}}, {"name": "StatefulPartitionedCall/mobile_net_v3_large/bottle_neck_5/se_block_5/add", "op": "AddV2", "input": ["StatefulPartitionedCall/mobile_net_v3_large/bottle_neck_5/se_block_5/dense_11/BiasAdd", "StatefulPartitionedCall/mobile_net_v3_large/bottle_neck_5/se_block_5/add/y"], "attr": {"T": {"type": "DT_FLOAT"}}}, {"name": "StatefulPartitionedCall/mobile_net_v3_large/bottle_neck_5/se_block_5/Relu6", "op": "Relu6", "input": ["StatefulPartitionedCall/mobile_net_v3_large/bottle_neck_5/se_block_5/add"], "attr": {"T": {"type": "DT_FLOAT"}}}, {"name": "StatefulPartitionedCall/mobile_net_v3_large/bottle_neck_5/se_block_5/truediv", "op": "Mul", "input": ["StatefulPartitionedCall/mobile_net_v3_large/bottle_neck_5/se_block_5/Relu6", "ConstantFolding/StatefulPartitionedCall/mobile_net_v3_large/bottle_neck_5/se_block_5/truediv_recip"], "attr": {"T": {"type": "DT_FLOAT"}}}, {"name": "StatefulPartitionedCall/mobile_net_v3_large/bottle_neck_5/se_block_5/ExpandDims", "op": "ExpandDims", "input": ["StatefulPartitionedCall/mobile_net_v3_large/bottle_neck_5/se_block_5/truediv", "StatefulPartitionedCall/mobile_net_v3_large/bottle_neck_5/se_block_5/ExpandDims/dim"], "attr": {"T": {"type": "DT_FLOAT"}, "Tdim": {"type": "DT_INT32"}}}, {"name": "StatefulPartitionedCall/mobile_net_v3_large/bottle_neck_5/se_block_5/ExpandDims_1", "op": "ExpandDims", "input": ["StatefulPartitionedCall/mobile_net_v3_large/bottle_neck_5/se_block_5/ExpandDims", "StatefulPartitionedCall/mobile_net_v3_large/bottle_neck_5/se_block_5/ExpandDims_1/dim"], "attr": {"T": {"type": "DT_FLOAT"}, "Tdim": {"type": "DT_INT32"}}}, {"name": "StatefulPartitionedCall/mobile_net_v3_large/bottle_neck_5/se_block_5/mul", "op": "Mul", "input": ["StatefulPartitionedCall/mobile_net_v3_large/bottle_neck_5/depthwise_conv2d_5/depthwise", "StatefulPartitionedCall/mobile_net_v3_large/bottle_neck_5/se_block_5/ExpandDims_1"], "attr": {"T": {"type": "DT_FLOAT"}}}, {"name": "StatefulPartitionedCall/mobile_net_v3_large/bottle_neck_5/batch_normalization_18/FusedBatchNormV3", "op": "_FusedConv2D", "input": ["StatefulPartitionedCall/mobile_net_v3_large/bottle_neck_5/se_block_5/mul", "StatefulPartitionedCall/mobile_net_v3_large/bottle_neck_5/conv2d_12/Conv2D_weights", "StatefulPartitionedCall/mobile_net_v3_large/bottle_neck_5/conv2d_12/Conv2D_bn_offset"], "device": "/device:CPU:0", "attr": {"padding": {"s": "U0FNRQ=="}, "num_args": {"i": "1"}, "dilations": {"list": {"i": ["1", "1", "1", "1"]}}, "explicit_paddings": {"list": {}}, "strides": {"list": {"i": ["1", "1", "1", "1"]}}, "epsilon": {"f": 0.0}, "T": {"type": "DT_FLOAT"}, "fused_ops": {"list": {"s": ["Qmlhc0FkZA=="]}}, "data_format": {"s": "TkhXQw=="}, "use_cudnn_on_gpu": {"b": true}}}, {"name": "StatefulPartitionedCall/mobile_net_v3_large/bottle_neck_5/add_3/add", "op": "AddV2", "input": ["StatefulPartitionedCall/mobile_net_v3_large/bottle_neck_5/batch_normalization_18/FusedBatchNormV3", "StatefulPartitionedCall/mobile_net_v3_large/bottle_neck_4/add_2/add"], "attr": {"T": {"type": "DT_FLOAT"}}}, {"name": "StatefulPartitionedCall/mobile_net_v3_large/bottle_neck_6/batch_normalization_19/FusedBatchNormV3", "op": "_FusedConv2D", "input": ["StatefulPartitionedCall/mobile_net_v3_large/bottle_neck_5/add_3/add", "StatefulPartitionedCall/mobile_net_v3_large/bottle_neck_6/conv2d_13/Conv2D_weights", "StatefulPartitionedCall/mobile_net_v3_large/bottle_neck_6/conv2d_13/Conv2D_bn_offset"], "device": "/device:CPU:0", "attr": {"padding": {"s": "U0FNRQ=="}, "num_args": {"i": "1"}, "dilations": {"list": {"i": ["1", "1", "1", "1"]}}, "explicit_paddings": {"list": {}}, "strides": {"list": {"i": ["1", "1", "1", "1"]}}, "epsilon": {"f": 0.0}, "T": {"type": "DT_FLOAT"}, "fused_ops": {"list": {"s": ["Qmlhc0FkZA=="]}}, "data_format": {"s": "TkhXQw=="}, "use_cudnn_on_gpu": {"b": true}}}, {"name": "StatefulPartitionedCall/mobile_net_v3_large/bottle_neck_6/truediv", "op": "Mul", "input": ["ConstantFolding/StatefulPartitionedCall/mobile_net_v3_large/bottle_neck_6/truediv_recip", "StatefulPartitionedCall/mobile_net_v3_large/bottle_neck_6/batch_normalization_19/FusedBatchNormV3"], "attr": {"T": {"type": "DT_FLOAT"}, "_grappler_ArithmeticOptimizer_MinimizeBroadcasts": {"b": true}}}, {"name": "StatefulPartitionedCall/mobile_net_v3_large/bottle_neck_6/add", "op": "AddV2", "input": ["StatefulPartitionedCall/mobile_net_v3_large/bottle_neck_6/batch_normalization_19/FusedBatchNormV3", "StatefulPartitionedCall/mobile_net_v3_large/bottle_neck_6/add/y"], "attr": {"T": {"type": "DT_FLOAT"}}}, {"name": "StatefulPartitionedCall/mobile_net_v3_large/bottle_neck_6/Relu6", "op": "Relu6", "input": ["StatefulPartitionedCall/mobile_net_v3_large/bottle_neck_6/add"], "attr": {"T": {"type": "DT_FLOAT"}}}, {"name": "StatefulPartitionedCall/mobile_net_v3_large/bottle_neck_6/mul", "op": "Mul", "input": ["StatefulPartitionedCall/mobile_net_v3_large/bottle_neck_6/truediv", "StatefulPartitionedCall/mobile_net_v3_large/bottle_neck_6/Relu6"], "attr": {"_grappler_ArithmeticOptimizer_MinimizeBroadcasts": {"b": true}, "T": {"type": "DT_FLOAT"}}}, {"name": "StatefulPartitionedCall/mobile_net_v3_large/bottle_neck_6/depthwise_conv2d_6/depthwise", "op": "FusedDepthwiseConv2dNative", "input": ["StatefulPartitionedCall/mobile_net_v3_large/bottle_neck_6/mul", "StatefulPartitionedCall/mobile_net_v3_large/bottle_neck_6/depthwise_conv2d_6/depthwise_weights", "StatefulPartitionedCall/mobile_net_v3_large/bottle_neck_6/depthwise_conv2d_6/depthwise_bn_offset"], "attr": {"data_format": {"s": "TkhXQw=="}, "num_args": {"i": "1"}, "dilations": {"list": {"i": ["1", "1", "1", "1"]}}, "T": {"type": "DT_FLOAT"}, "explicit_paddings": {"list": {}}, "fused_ops": {"list": {"s": ["Qmlhc0FkZA=="]}}, "strides": {"list": {"i": ["1", "1", "1", "1"]}}, "padding": {"s": "U0FNRQ=="}}}, {"name": "StatefulPartitionedCall/mobile_net_v3_large/bottle_neck_6/truediv_1", "op": "Mul", "input": ["ConstantFolding/StatefulPartitionedCall/mobile_net_v3_large/bottle_neck_6/truediv_1_recip", "StatefulPartitionedCall/mobile_net_v3_large/bottle_neck_6/depthwise_conv2d_6/depthwise"], "attr": {"T": {"type": "DT_FLOAT"}, "_grappler_ArithmeticOptimizer_MinimizeBroadcasts": {"b": true}}}, {"name": "StatefulPartitionedCall/mobile_net_v3_large/bottle_neck_6/add_1", "op": "AddV2", "input": ["StatefulPartitionedCall/mobile_net_v3_large/bottle_neck_6/depthwise_conv2d_6/depthwise", "StatefulPartitionedCall/mobile_net_v3_large/bottle_neck_6/add_1/y"], "attr": {"T": {"type": "DT_FLOAT"}}}, {"name": "StatefulPartitionedCall/mobile_net_v3_large/bottle_neck_6/Relu6_1", "op": "Relu6", "input": ["StatefulPartitionedCall/mobile_net_v3_large/bottle_neck_6/add_1"], "attr": {"T": {"type": "DT_FLOAT"}}}, {"name": "StatefulPartitionedCall/mobile_net_v3_large/bottle_neck_6/mul_1", "op": "Mul", "input": ["StatefulPartitionedCall/mobile_net_v3_large/bottle_neck_6/truediv_1", "StatefulPartitionedCall/mobile_net_v3_large/bottle_neck_6/Relu6_1"], "attr": {"T": {"type": "DT_FLOAT"}, "_grappler_ArithmeticOptimizer_MinimizeBroadcasts": {"b": true}}}, {"name": "StatefulPartitionedCall/mobile_net_v3_large/bottle_neck_6/batch_normalization_21/FusedBatchNormV3", "op": "_FusedConv2D", "input": ["StatefulPartitionedCall/mobile_net_v3_large/bottle_neck_6/mul_1", "StatefulPartitionedCall/mobile_net_v3_large/bottle_neck_6/conv2d_14/Conv2D_weights", "StatefulPartitionedCall/mobile_net_v3_large/bottle_neck_6/conv2d_14/Conv2D_bn_offset"], "device": "/device:CPU:0", "attr": {"data_format": {"s": "TkhXQw=="}, "use_cudnn_on_gpu": {"b": true}, "num_args": {"i": "1"}, "dilations": {"list": {"i": ["1", "1", "1", "1"]}}, "T": {"type": "DT_FLOAT"}, "fused_ops": {"list": {"s": ["Qmlhc0FkZA=="]}}, "explicit_paddings": {"list": {}}, "strides": {"list": {"i": ["1", "1", "1", "1"]}}, "epsilon": {"f": 0.0}, "padding": {"s": "U0FNRQ=="}}}, {"name": "StatefulPartitionedCall/mobile_net_v3_large/bottle_neck_7/batch_normalization_22/FusedBatchNormV3", "op": "_FusedConv2D", "input": ["StatefulPartitionedCall/mobile_net_v3_large/bottle_neck_6/batch_normalization_21/FusedBatchNormV3", "StatefulPartitionedCall/mobile_net_v3_large/bottle_neck_7/conv2d_15/Conv2D_weights", "StatefulPartitionedCall/mobile_net_v3_large/bottle_neck_7/conv2d_15/Conv2D_bn_offset"], "device": "/device:CPU:0", "attr": {"epsilon": {"f": 0.0}, "T": {"type": "DT_FLOAT"}, "padding": {"s": "U0FNRQ=="}, "explicit_paddings": {"list": {}}, "strides": {"list": {"i": ["1", "1", "1", "1"]}}, "data_format": {"s": "TkhXQw=="}, "use_cudnn_on_gpu": {"b": true}, "num_args": {"i": "1"}, "dilations": {"list": {"i": ["1", "1", "1", "1"]}}, "fused_ops": {"list": {"s": ["Qmlhc0FkZA=="]}}}}, {"name": "StatefulPartitionedCall/mobile_net_v3_large/bottle_neck_7/truediv", "op": "Mul", "input": ["ConstantFolding/StatefulPartitionedCall/mobile_net_v3_large/bottle_neck_7/truediv_recip", "StatefulPartitionedCall/mobile_net_v3_large/bottle_neck_7/batch_normalization_22/FusedBatchNormV3"], "attr": {"T": {"type": "DT_FLOAT"}, "_grappler_ArithmeticOptimizer_MinimizeBroadcasts": {"b": true}}}, {"name": "StatefulPartitionedCall/mobile_net_v3_large/bottle_neck_7/add", "op": "AddV2", "input": ["StatefulPartitionedCall/mobile_net_v3_large/bottle_neck_7/batch_normalization_22/FusedBatchNormV3", "StatefulPartitionedCall/mobile_net_v3_large/bottle_neck_7/add/y"], "attr": {"T": {"type": "DT_FLOAT"}}}, {"name": "StatefulPartitionedCall/mobile_net_v3_large/bottle_neck_7/Relu6", "op": "Relu6", "input": ["StatefulPartitionedCall/mobile_net_v3_large/bottle_neck_7/add"], "attr": {"T": {"type": "DT_FLOAT"}}}, {"name": "StatefulPartitionedCall/mobile_net_v3_large/bottle_neck_7/mul", "op": "Mul", "input": ["StatefulPartitionedCall/mobile_net_v3_large/bottle_neck_7/truediv", "StatefulPartitionedCall/mobile_net_v3_large/bottle_neck_7/Relu6"], "attr": {"T": {"type": "DT_FLOAT"}, "_grappler_ArithmeticOptimizer_MinimizeBroadcasts": {"b": true}}}, {"name": "StatefulPartitionedCall/mobile_net_v3_large/bottle_neck_7/depthwise_conv2d_7/depthwise", "op": "FusedDepthwiseConv2dNative", "input": ["StatefulPartitionedCall/mobile_net_v3_large/bottle_neck_7/mul", "StatefulPartitionedCall/mobile_net_v3_large/bottle_neck_7/depthwise_conv2d_7/depthwise_weights", "StatefulPartitionedCall/mobile_net_v3_large/bottle_neck_7/depthwise_conv2d_7/depthwise_bn_offset"], "attr": {"T": {"type": "DT_FLOAT"}, "explicit_paddings": {"list": {}}, "padding": {"s": "U0FNRQ=="}, "strides": {"list": {"i": ["1", "1", "1", "1"]}}, "data_format": {"s": "TkhXQw=="}, "dilations": {"list": {"i": ["1", "1", "1", "1"]}}, "num_args": {"i": "1"}, "fused_ops": {"list": {"s": ["Qmlhc0FkZA=="]}}}}, {"name": "StatefulPartitionedCall/mobile_net_v3_large/bottle_neck_7/truediv_1", "op": "Mul", "input": ["ConstantFolding/StatefulPartitionedCall/mobile_net_v3_large/bottle_neck_7/truediv_1_recip", "StatefulPartitionedCall/mobile_net_v3_large/bottle_neck_7/depthwise_conv2d_7/depthwise"], "attr": {"_grappler_ArithmeticOptimizer_MinimizeBroadcasts": {"b": true}, "T": {"type": "DT_FLOAT"}}}, {"name": "StatefulPartitionedCall/mobile_net_v3_large/bottle_neck_7/add_1", "op": "AddV2", "input": ["StatefulPartitionedCall/mobile_net_v3_large/bottle_neck_7/depthwise_conv2d_7/depthwise", "StatefulPartitionedCall/mobile_net_v3_large/bottle_neck_7/add_1/y"], "attr": {"T": {"type": "DT_FLOAT"}}}, {"name": "StatefulPartitionedCall/mobile_net_v3_large/bottle_neck_7/Relu6_1", "op": "Relu6", "input": ["StatefulPartitionedCall/mobile_net_v3_large/bottle_neck_7/add_1"], "attr": {"T": {"type": "DT_FLOAT"}}}, {"name": "StatefulPartitionedCall/mobile_net_v3_large/bottle_neck_7/mul_1", "op": "Mul", "input": ["StatefulPartitionedCall/mobile_net_v3_large/bottle_neck_7/truediv_1", "StatefulPartitionedCall/mobile_net_v3_large/bottle_neck_7/Relu6_1"], "attr": {"_grappler_ArithmeticOptimizer_MinimizeBroadcasts": {"b": true}, "T": {"type": "DT_FLOAT"}}}, {"name": "StatefulPartitionedCall/mobile_net_v3_large/bottle_neck_7/batch_normalization_24/FusedBatchNormV3", "op": "_FusedConv2D", "input": ["StatefulPartitionedCall/mobile_net_v3_large/bottle_neck_7/mul_1", "StatefulPartitionedCall/mobile_net_v3_large/bottle_neck_7/conv2d_16/Conv2D_weights", "StatefulPartitionedCall/mobile_net_v3_large/bottle_neck_7/conv2d_16/Conv2D_bn_offset"], "device": "/device:CPU:0", "attr": {"strides": {"list": {"i": ["1", "1", "1", "1"]}}, "epsilon": {"f": 0.0}, "T": {"type": "DT_FLOAT"}, "fused_ops": {"list": {"s": ["Qmlhc0FkZA=="]}}, "padding": {"s": "U0FNRQ=="}, "use_cudnn_on_gpu": {"b": true}, "data_format": {"s": "TkhXQw=="}, "num_args": {"i": "1"}, "dilations": {"list": {"i": ["1", "1", "1", "1"]}}, "explicit_paddings": {"list": {}}}}, {"name": "StatefulPartitionedCall/mobile_net_v3_large/bottle_neck_7/add_4/add", "op": "AddV2", "input": ["StatefulPartitionedCall/mobile_net_v3_large/bottle_neck_7/batch_normalization_24/FusedBatchNormV3", "StatefulPartitionedCall/mobile_net_v3_large/bottle_neck_6/batch_normalization_21/FusedBatchNormV3"], "attr": {"T": {"type": "DT_FLOAT"}}}, {"name": "StatefulPartitionedCall/mobile_net_v3_large/bottle_neck_8/batch_normalization_25/FusedBatchNormV3", "op": "_FusedConv2D", "input": ["StatefulPartitionedCall/mobile_net_v3_large/bottle_neck_7/add_4/add", "StatefulPartitionedCall/mobile_net_v3_large/bottle_neck_8/conv2d_17/Conv2D_weights", "StatefulPartitionedCall/mobile_net_v3_large/bottle_neck_8/conv2d_17/Conv2D_bn_offset"], "device": "/device:CPU:0", "attr": {"strides": {"list": {"i": ["1", "1", "1", "1"]}}, "epsilon": {"f": 0.0}, "T": {"type": "DT_FLOAT"}, "fused_ops": {"list": {"s": ["Qmlhc0FkZA=="]}}, "padding": {"s": "U0FNRQ=="}, "use_cudnn_on_gpu": {"b": true}, "data_format": {"s": "TkhXQw=="}, "num_args": {"i": "1"}, "dilations": {"list": {"i": ["1", "1", "1", "1"]}}, "explicit_paddings": {"list": {}}}}, {"name": "StatefulPartitionedCall/mobile_net_v3_large/bottle_neck_8/truediv", "op": "Mul", "input": ["ConstantFolding/StatefulPartitionedCall/mobile_net_v3_large/bottle_neck_8/truediv_recip", "StatefulPartitionedCall/mobile_net_v3_large/bottle_neck_8/batch_normalization_25/FusedBatchNormV3"], "attr": {"T": {"type": "DT_FLOAT"}, "_grappler_ArithmeticOptimizer_MinimizeBroadcasts": {"b": true}}}, {"name": "StatefulPartitionedCall/mobile_net_v3_large/bottle_neck_8/add", "op": "AddV2", "input": ["StatefulPartitionedCall/mobile_net_v3_large/bottle_neck_8/batch_normalization_25/FusedBatchNormV3", "StatefulPartitionedCall/mobile_net_v3_large/bottle_neck_8/add/y"], "attr": {"T": {"type": "DT_FLOAT"}}}, {"name": "StatefulPartitionedCall/mobile_net_v3_large/bottle_neck_8/Relu6", "op": "Relu6", "input": ["StatefulPartitionedCall/mobile_net_v3_large/bottle_neck_8/add"], "attr": {"T": {"type": "DT_FLOAT"}}}, {"name": "StatefulPartitionedCall/mobile_net_v3_large/bottle_neck_8/mul", "op": "Mul", "input": ["StatefulPartitionedCall/mobile_net_v3_large/bottle_neck_8/truediv", "StatefulPartitionedCall/mobile_net_v3_large/bottle_neck_8/Relu6"], "attr": {"_grappler_ArithmeticOptimizer_MinimizeBroadcasts": {"b": true}, "T": {"type": "DT_FLOAT"}}}, {"name": "StatefulPartitionedCall/mobile_net_v3_large/bottle_neck_8/depthwise_conv2d_8/depthwise", "op": "FusedDepthwiseConv2dNative", "input": ["StatefulPartitionedCall/mobile_net_v3_large/bottle_neck_8/mul", "StatefulPartitionedCall/mobile_net_v3_large/bottle_neck_8/depthwise_conv2d_8/depthwise_weights", "StatefulPartitionedCall/mobile_net_v3_large/bottle_neck_8/depthwise_conv2d_8/depthwise_bn_offset"], "attr": {"strides": {"list": {"i": ["1", "1", "1", "1"]}}, "T": {"type": "DT_FLOAT"}, "fused_ops": {"list": {"s": ["Qmlhc0FkZA=="]}}, "padding": {"s": "U0FNRQ=="}, "data_format": {"s": "TkhXQw=="}, "num_args": {"i": "1"}, "dilations": {"list": {"i": ["1", "1", "1", "1"]}}, "explicit_paddings": {"list": {}}}}, {"name": "StatefulPartitionedCall/mobile_net_v3_large/bottle_neck_8/truediv_1", "op": "Mul", "input": ["ConstantFolding/StatefulPartitionedCall/mobile_net_v3_large/bottle_neck_8/truediv_1_recip", "StatefulPartitionedCall/mobile_net_v3_large/bottle_neck_8/depthwise_conv2d_8/depthwise"], "attr": {"_grappler_ArithmeticOptimizer_MinimizeBroadcasts": {"b": true}, "T": {"type": "DT_FLOAT"}}}, {"name": "StatefulPartitionedCall/mobile_net_v3_large/bottle_neck_8/add_1", "op": "AddV2", "input": ["StatefulPartitionedCall/mobile_net_v3_large/bottle_neck_8/depthwise_conv2d_8/depthwise", "StatefulPartitionedCall/mobile_net_v3_large/bottle_neck_8/add_1/y"], "attr": {"T": {"type": "DT_FLOAT"}}}, {"name": "StatefulPartitionedCall/mobile_net_v3_large/bottle_neck_8/Relu6_1", "op": "Relu6", "input": ["StatefulPartitionedCall/mobile_net_v3_large/bottle_neck_8/add_1"], "attr": {"T": {"type": "DT_FLOAT"}}}, {"name": "StatefulPartitionedCall/mobile_net_v3_large/bottle_neck_8/mul_1", "op": "Mul", "input": ["StatefulPartitionedCall/mobile_net_v3_large/bottle_neck_8/truediv_1", "StatefulPartitionedCall/mobile_net_v3_large/bottle_neck_8/Relu6_1"], "attr": {"_grappler_ArithmeticOptimizer_MinimizeBroadcasts": {"b": true}, "T": {"type": "DT_FLOAT"}}}, {"name": "StatefulPartitionedCall/mobile_net_v3_large/bottle_neck_8/batch_normalization_27/FusedBatchNormV3", "op": "_FusedConv2D", "input": ["StatefulPartitionedCall/mobile_net_v3_large/bottle_neck_8/mul_1", "StatefulPartitionedCall/mobile_net_v3_large/bottle_neck_8/conv2d_18/Conv2D_weights", "StatefulPartitionedCall/mobile_net_v3_large/bottle_neck_8/conv2d_18/Conv2D_bn_offset"], "device": "/device:CPU:0", "attr": {"padding": {"s": "U0FNRQ=="}, "num_args": {"i": "1"}, "dilations": {"list": {"i": ["1", "1", "1", "1"]}}, "explicit_paddings": {"list": {}}, "strides": {"list": {"i": ["1", "1", "1", "1"]}}, "epsilon": {"f": 0.0}, "T": {"type": "DT_FLOAT"}, "fused_ops": {"list": {"s": ["Qmlhc0FkZA=="]}}, "data_format": {"s": "TkhXQw=="}, "use_cudnn_on_gpu": {"b": true}}}, {"name": "StatefulPartitionedCall/mobile_net_v3_large/bottle_neck_8/add_5/add", "op": "AddV2", "input": ["StatefulPartitionedCall/mobile_net_v3_large/bottle_neck_8/batch_normalization_27/FusedBatchNormV3", "StatefulPartitionedCall/mobile_net_v3_large/bottle_neck_7/add_4/add"], "attr": {"T": {"type": "DT_FLOAT"}}}, {"name": "StatefulPartitionedCall/mobile_net_v3_large/bottle_neck_9/batch_normalization_28/FusedBatchNormV3", "op": "_FusedConv2D", "input": ["StatefulPartitionedCall/mobile_net_v3_large/bottle_neck_8/add_5/add", "StatefulPartitionedCall/mobile_net_v3_large/bottle_neck_9/conv2d_19/Conv2D_weights", "StatefulPartitionedCall/mobile_net_v3_large/bottle_neck_9/conv2d_19/Conv2D_bn_offset"], "device": "/device:CPU:0", "attr": {"explicit_paddings": {"list": {}}, "T": {"type": "DT_FLOAT"}, "fused_ops": {"list": {"s": ["Qmlhc0FkZA=="]}}, "padding": {"s": "U0FNRQ=="}, "strides": {"list": {"i": ["1", "1", "1", "1"]}}, "epsilon": {"f": 0.0}, "use_cudnn_on_gpu": {"b": true}, "data_format": {"s": "TkhXQw=="}, "num_args": {"i": "1"}, "dilations": {"list": {"i": ["1", "1", "1", "1"]}}}}, {"name": "StatefulPartitionedCall/mobile_net_v3_large/bottle_neck_9/truediv", "op": "Mul", "input": ["ConstantFolding/StatefulPartitionedCall/mobile_net_v3_large/bottle_neck_9/truediv_recip", "StatefulPartitionedCall/mobile_net_v3_large/bottle_neck_9/batch_normalization_28/FusedBatchNormV3"], "attr": {"_grappler_ArithmeticOptimizer_MinimizeBroadcasts": {"b": true}, "T": {"type": "DT_FLOAT"}}}, {"name": "StatefulPartitionedCall/mobile_net_v3_large/bottle_neck_9/add", "op": "AddV2", "input": ["StatefulPartitionedCall/mobile_net_v3_large/bottle_neck_9/batch_normalization_28/FusedBatchNormV3", "StatefulPartitionedCall/mobile_net_v3_large/bottle_neck_9/add/y"], "attr": {"T": {"type": "DT_FLOAT"}}}, {"name": "StatefulPartitionedCall/mobile_net_v3_large/bottle_neck_9/Relu6", "op": "Relu6", "input": ["StatefulPartitionedCall/mobile_net_v3_large/bottle_neck_9/add"], "attr": {"T": {"type": "DT_FLOAT"}}}, {"name": "StatefulPartitionedCall/mobile_net_v3_large/bottle_neck_9/mul", "op": "Mul", "input": ["StatefulPartitionedCall/mobile_net_v3_large/bottle_neck_9/truediv", "StatefulPartitionedCall/mobile_net_v3_large/bottle_neck_9/Relu6"], "attr": {"T": {"type": "DT_FLOAT"}, "_grappler_ArithmeticOptimizer_MinimizeBroadcasts": {"b": true}}}, {"name": "StatefulPartitionedCall/mobile_net_v3_large/bottle_neck_9/depthwise_conv2d_9/depthwise", "op": "FusedDepthwiseConv2dNative", "input": ["StatefulPartitionedCall/mobile_net_v3_large/bottle_neck_9/mul", "StatefulPartitionedCall/mobile_net_v3_large/bottle_neck_9/depthwise_conv2d_9/depthwise_weights", "StatefulPartitionedCall/mobile_net_v3_large/bottle_neck_9/depthwise_conv2d_9/depthwise_bn_offset"], "attr": {"padding": {"s": "U0FNRQ=="}, "num_args": {"i": "1"}, "dilations": {"list": {"i": ["1", "1", "1", "1"]}}, "explicit_paddings": {"list": {}}, "strides": {"list": {"i": ["1", "1", "1", "1"]}}, "T": {"type": "DT_FLOAT"}, "fused_ops": {"list": {"s": ["Qmlhc0FkZA=="]}}, "data_format": {"s": "TkhXQw=="}}}, {"name": "StatefulPartitionedCall/mobile_net_v3_large/bottle_neck_9/truediv_1", "op": "Mul", "input": ["ConstantFolding/StatefulPartitionedCall/mobile_net_v3_large/bottle_neck_9/truediv_1_recip", "StatefulPartitionedCall/mobile_net_v3_large/bottle_neck_9/depthwise_conv2d_9/depthwise"], "attr": {"_grappler_ArithmeticOptimizer_MinimizeBroadcasts": {"b": true}, "T": {"type": "DT_FLOAT"}}}, {"name": "StatefulPartitionedCall/mobile_net_v3_large/bottle_neck_9/add_1", "op": "AddV2", "input": ["StatefulPartitionedCall/mobile_net_v3_large/bottle_neck_9/depthwise_conv2d_9/depthwise", "StatefulPartitionedCall/mobile_net_v3_large/bottle_neck_9/add_1/y"], "attr": {"T": {"type": "DT_FLOAT"}}}, {"name": "StatefulPartitionedCall/mobile_net_v3_large/bottle_neck_9/Relu6_1", "op": "Relu6", "input": ["StatefulPartitionedCall/mobile_net_v3_large/bottle_neck_9/add_1"], "attr": {"T": {"type": "DT_FLOAT"}}}, {"name": "StatefulPartitionedCall/mobile_net_v3_large/bottle_neck_9/mul_1", "op": "Mul", "input": ["StatefulPartitionedCall/mobile_net_v3_large/bottle_neck_9/truediv_1", "StatefulPartitionedCall/mobile_net_v3_large/bottle_neck_9/Relu6_1"], "attr": {"T": {"type": "DT_FLOAT"}, "_grappler_ArithmeticOptimizer_MinimizeBroadcasts": {"b": true}}}, {"name": "StatefulPartitionedCall/mobile_net_v3_large/bottle_neck_9/batch_normalization_30/FusedBatchNormV3", "op": "_FusedConv2D", "input": ["StatefulPartitionedCall/mobile_net_v3_large/bottle_neck_9/mul_1", "StatefulPartitionedCall/mobile_net_v3_large/bottle_neck_9/conv2d_20/Conv2D_weights", "StatefulPartitionedCall/mobile_net_v3_large/bottle_neck_9/conv2d_20/Conv2D_bn_offset"], "device": "/device:CPU:0", "attr": {"explicit_paddings": {"list": {}}, "T": {"type": "DT_FLOAT"}, "fused_ops": {"list": {"s": ["Qmlhc0FkZA=="]}}, "padding": {"s": "U0FNRQ=="}, "strides": {"list": {"i": ["1", "1", "1", "1"]}}, "epsilon": {"f": 0.0}, "use_cudnn_on_gpu": {"b": true}, "data_format": {"s": "TkhXQw=="}, "num_args": {"i": "1"}, "dilations": {"list": {"i": ["1", "1", "1", "1"]}}}}, {"name": "StatefulPartitionedCall/mobile_net_v3_large/bottle_neck_9/add_6/add", "op": "AddV2", "input": ["StatefulPartitionedCall/mobile_net_v3_large/bottle_neck_9/batch_normalization_30/FusedBatchNormV3", "StatefulPartitionedCall/mobile_net_v3_large/bottle_neck_8/add_5/add"], "attr": {"T": {"type": "DT_FLOAT"}}}, {"name": "StatefulPartitionedCall/mobile_net_v3_large/bottle_neck_10/batch_normalization_31/FusedBatchNormV3", "op": "_FusedConv2D", "input": ["StatefulPartitionedCall/mobile_net_v3_large/bottle_neck_9/add_6/add", "StatefulPartitionedCall/mobile_net_v3_large/bottle_neck_10/conv2d_21/Conv2D_weights", "StatefulPartitionedCall/mobile_net_v3_large/bottle_neck_10/conv2d_21/Conv2D_bn_offset"], "device": "/device:CPU:0", "attr": {"padding": {"s": "U0FNRQ=="}, "data_format": {"s": "TkhXQw=="}, "fused_ops": {"list": {"s": ["Qmlhc0FkZA=="]}}, "epsilon": {"f": 0.0}, "use_cudnn_on_gpu": {"b": true}, "strides": {"list": {"i": ["1", "1", "1", "1"]}}, "explicit_paddings": {"list": {}}, "num_args": {"i": "1"}, "T": {"type": "DT_FLOAT"}, "dilations": {"list": {"i": ["1", "1", "1", "1"]}}}}, {"name": "StatefulPartitionedCall/mobile_net_v3_large/bottle_neck_10/truediv", "op": "Mul", "input": ["ConstantFolding/StatefulPartitionedCall/mobile_net_v3_large/bottle_neck_10/truediv_recip", "StatefulPartitionedCall/mobile_net_v3_large/bottle_neck_10/batch_normalization_31/FusedBatchNormV3"], "attr": {"_grappler_ArithmeticOptimizer_MinimizeBroadcasts": {"b": true}, "T": {"type": "DT_FLOAT"}}}, {"name": "StatefulPartitionedCall/mobile_net_v3_large/bottle_neck_10/add", "op": "AddV2", "input": ["StatefulPartitionedCall/mobile_net_v3_large/bottle_neck_10/batch_normalization_31/FusedBatchNormV3", "StatefulPartitionedCall/mobile_net_v3_large/bottle_neck_10/add/y"], "attr": {"T": {"type": "DT_FLOAT"}}}, {"name": "StatefulPartitionedCall/mobile_net_v3_large/bottle_neck_10/Relu6", "op": "Relu6", "input": ["StatefulPartitionedCall/mobile_net_v3_large/bottle_neck_10/add"], "attr": {"T": {"type": "DT_FLOAT"}}}, {"name": "StatefulPartitionedCall/mobile_net_v3_large/bottle_neck_10/mul", "op": "Mul", "input": ["StatefulPartitionedCall/mobile_net_v3_large/bottle_neck_10/truediv", "StatefulPartitionedCall/mobile_net_v3_large/bottle_neck_10/Relu6"], "attr": {"_grappler_ArithmeticOptimizer_MinimizeBroadcasts": {"b": true}, "T": {"type": "DT_FLOAT"}}}, {"name": "StatefulPartitionedCall/mobile_net_v3_large/bottle_neck_10/depthwise_conv2d_10/depthwise", "op": "FusedDepthwiseConv2dNative", "input": ["StatefulPartitionedCall/mobile_net_v3_large/bottle_neck_10/mul", "StatefulPartitionedCall/mobile_net_v3_large/bottle_neck_10/depthwise_conv2d_10/depthwise_weights", "StatefulPartitionedCall/mobile_net_v3_large/bottle_neck_10/depthwise_conv2d_10/depthwise_bn_offset"], "attr": {"fused_ops": {"list": {"s": ["Qmlhc0FkZA=="]}}, "dilations": {"list": {"i": ["1", "1", "1", "1"]}}, "T": {"type": "DT_FLOAT"}, "padding": {"s": "U0FNRQ=="}, "explicit_paddings": {"list": {}}, "num_args": {"i": "1"}, "strides": {"list": {"i": ["1", "1", "1", "1"]}}, "data_format": {"s": "TkhXQw=="}}}, {"name": "StatefulPartitionedCall/mobile_net_v3_large/bottle_neck_10/truediv_1", "op": "Mul", "input": ["ConstantFolding/StatefulPartitionedCall/mobile_net_v3_large/bottle_neck_10/truediv_1_recip", "StatefulPartitionedCall/mobile_net_v3_large/bottle_neck_10/depthwise_conv2d_10/depthwise"], "attr": {"T": {"type": "DT_FLOAT"}, "_grappler_ArithmeticOptimizer_MinimizeBroadcasts": {"b": true}}}, {"name": "StatefulPartitionedCall/mobile_net_v3_large/bottle_neck_10/add_1", "op": "AddV2", "input": ["StatefulPartitionedCall/mobile_net_v3_large/bottle_neck_10/depthwise_conv2d_10/depthwise", "StatefulPartitionedCall/mobile_net_v3_large/bottle_neck_10/add_1/y"], "attr": {"T": {"type": "DT_FLOAT"}}}, {"name": "StatefulPartitionedCall/mobile_net_v3_large/bottle_neck_10/Relu6_1", "op": "Relu6", "input": ["StatefulPartitionedCall/mobile_net_v3_large/bottle_neck_10/add_1"], "attr": {"T": {"type": "DT_FLOAT"}}}, {"name": "StatefulPartitionedCall/mobile_net_v3_large/bottle_neck_10/mul_1", "op": "Mul", "input": ["StatefulPartitionedCall/mobile_net_v3_large/bottle_neck_10/truediv_1", "StatefulPartitionedCall/mobile_net_v3_large/bottle_neck_10/Relu6_1"], "attr": {"_grappler_ArithmeticOptimizer_MinimizeBroadcasts": {"b": true}, "T": {"type": "DT_FLOAT"}}}, {"name": "StatefulPartitionedCall/mobile_net_v3_large/bottle_neck_10/se_block_10/global_average_pooling2d_10/Mean", "op": "Mean", "input": ["StatefulPartitionedCall/mobile_net_v3_large/bottle_neck_10/mul_1", "StatefulPartitionedCall/mobile_net_v3_large/bottle_neck_10/se_block_10/global_average_pooling2d_10/Mean/reduction_indices"], "attr": {"T": {"type": "DT_FLOAT"}, "keep_dims": {"b": false}, "Tidx": {"type": "DT_INT32"}}}, {"name": "StatefulPartitionedCall/mobile_net_v3_large/bottle_neck_10/se_block_10/Relu", "op": "_FusedMatMul", "input": ["StatefulPartitionedCall/mobile_net_v3_large/bottle_neck_10/se_block_10/global_average_pooling2d_10/Mean", "unknown_209", "unknown_210"], "device": "/device:CPU:0", "attr": {"transpose_a": {"b": false}, "fused_ops": {"list": {"s": ["Qmlhc0FkZA==", "UmVsdQ=="]}}, "epsilon": {"f": 0.0}, "transpose_b": {"b": false}, "T": {"type": "DT_FLOAT"}, "num_args": {"i": "1"}}}, {"name": "StatefulPartitionedCall/mobile_net_v3_large/bottle_neck_10/se_block_10/dense_21/BiasAdd", "op": "_FusedMatMul", "input": ["StatefulPartitionedCall/mobile_net_v3_large/bottle_neck_10/se_block_10/Relu", "unknown_211", "unknown_212"], "device": "/device:CPU:0", "attr": {"transpose_b": {"b": false}, "num_args": {"i": "1"}, "T": {"type": "DT_FLOAT"}, "transpose_a": {"b": false}, "fused_ops": {"list": {"s": ["Qmlhc0FkZA=="]}}, "epsilon": {"f": 0.0}}}, {"name": "StatefulPartitionedCall/mobile_net_v3_large/bottle_neck_10/se_block_10/add", "op": "AddV2", "input": ["StatefulPartitionedCall/mobile_net_v3_large/bottle_neck_10/se_block_10/dense_21/BiasAdd", "StatefulPartitionedCall/mobile_net_v3_large/bottle_neck_10/se_block_10/add/y"], "attr": {"T": {"type": "DT_FLOAT"}}}, {"name": "StatefulPartitionedCall/mobile_net_v3_large/bottle_neck_10/se_block_10/Relu6", "op": "Relu6", "input": ["StatefulPartitionedCall/mobile_net_v3_large/bottle_neck_10/se_block_10/add"], "attr": {"T": {"type": "DT_FLOAT"}}}, {"name": "StatefulPartitionedCall/mobile_net_v3_large/bottle_neck_10/se_block_10/truediv", "op": "Mul", "input": ["StatefulPartitionedCall/mobile_net_v3_large/bottle_neck_10/se_block_10/Relu6", "ConstantFolding/StatefulPartitionedCall/mobile_net_v3_large/bottle_neck_10/se_block_10/truediv_recip"], "attr": {"T": {"type": "DT_FLOAT"}}}, {"name": "StatefulPartitionedCall/mobile_net_v3_large/bottle_neck_10/se_block_10/ExpandDims", "op": "ExpandDims", "input": ["StatefulPartitionedCall/mobile_net_v3_large/bottle_neck_10/se_block_10/truediv", "StatefulPartitionedCall/mobile_net_v3_large/bottle_neck_10/se_block_10/ExpandDims/dim"], "attr": {"T": {"type": "DT_FLOAT"}, "Tdim": {"type": "DT_INT32"}}}, {"name": "StatefulPartitionedCall/mobile_net_v3_large/bottle_neck_10/se_block_10/ExpandDims_1", "op": "ExpandDims", "input": ["StatefulPartitionedCall/mobile_net_v3_large/bottle_neck_10/se_block_10/ExpandDims", "StatefulPartitionedCall/mobile_net_v3_large/bottle_neck_10/se_block_10/ExpandDims_1/dim"], "attr": {"T": {"type": "DT_FLOAT"}, "Tdim": {"type": "DT_INT32"}}}, {"name": "StatefulPartitionedCall/mobile_net_v3_large/bottle_neck_10/se_block_10/mul", "op": "Mul", "input": ["StatefulPartitionedCall/mobile_net_v3_large/bottle_neck_10/mul_1", "StatefulPartitionedCall/mobile_net_v3_large/bottle_neck_10/se_block_10/ExpandDims_1"], "attr": {"T": {"type": "DT_FLOAT"}}}, {"name": "StatefulPartitionedCall/mobile_net_v3_large/bottle_neck_10/batch_normalization_33/FusedBatchNormV3", "op": "_FusedConv2D", "input": ["StatefulPartitionedCall/mobile_net_v3_large/bottle_neck_10/se_block_10/mul", "StatefulPartitionedCall/mobile_net_v3_large/bottle_neck_10/conv2d_22/Conv2D_weights", "StatefulPartitionedCall/mobile_net_v3_large/bottle_neck_10/conv2d_22/Conv2D_bn_offset"], "device": "/device:CPU:0", "attr": {"padding": {"s": "U0FNRQ=="}, "strides": {"list": {"i": ["1", "1", "1", "1"]}}, "explicit_paddings": {"list": {}}, "data_format": {"s": "TkhXQw=="}, "epsilon": {"f": 0.0}, "fused_ops": {"list": {"s": ["Qmlhc0FkZA=="]}}, "use_cudnn_on_gpu": {"b": true}, "T": {"type": "DT_FLOAT"}, "num_args": {"i": "1"}, "dilations": {"list": {"i": ["1", "1", "1", "1"]}}}}, {"name": "StatefulPartitionedCall/mobile_net_v3_large/bottle_neck_11/batch_normalization_34/FusedBatchNormV3", "op": "_FusedConv2D", "input": ["StatefulPartitionedCall/mobile_net_v3_large/bottle_neck_10/batch_normalization_33/FusedBatchNormV3", "StatefulPartitionedCall/mobile_net_v3_large/bottle_neck_11/conv2d_23/Conv2D_weights", "StatefulPartitionedCall/mobile_net_v3_large/bottle_neck_11/conv2d_23/Conv2D_bn_offset"], "device": "/device:CPU:0", "attr": {"use_cudnn_on_gpu": {"b": true}, "fused_ops": {"list": {"s": ["Qmlhc0FkZA=="]}}, "dilations": {"list": {"i": ["1", "1", "1", "1"]}}, "T": {"type": "DT_FLOAT"}, "padding": {"s": "U0FNRQ=="}, "explicit_paddings": {"list": {}}, "num_args": {"i": "1"}, "strides": {"list": {"i": ["1", "1", "1", "1"]}}, "data_format": {"s": "TkhXQw=="}, "epsilon": {"f": 0.0}}}, {"name": "StatefulPartitionedCall/mobile_net_v3_large/bottle_neck_11/truediv", "op": "Mul", "input": ["ConstantFolding/StatefulPartitionedCall/mobile_net_v3_large/bottle_neck_11/truediv_recip", "StatefulPartitionedCall/mobile_net_v3_large/bottle_neck_11/batch_normalization_34/FusedBatchNormV3"], "attr": {"_grappler_ArithmeticOptimizer_MinimizeBroadcasts": {"b": true}, "T": {"type": "DT_FLOAT"}}}, {"name": "StatefulPartitionedCall/mobile_net_v3_large/bottle_neck_11/add", "op": "AddV2", "input": ["StatefulPartitionedCall/mobile_net_v3_large/bottle_neck_11/batch_normalization_34/FusedBatchNormV3", "StatefulPartitionedCall/mobile_net_v3_large/bottle_neck_11/add/y"], "attr": {"T": {"type": "DT_FLOAT"}}}, {"name": "StatefulPartitionedCall/mobile_net_v3_large/bottle_neck_11/Relu6", "op": "Relu6", "input": ["StatefulPartitionedCall/mobile_net_v3_large/bottle_neck_11/add"], "attr": {"T": {"type": "DT_FLOAT"}}}, {"name": "StatefulPartitionedCall/mobile_net_v3_large/bottle_neck_11/mul", "op": "Mul", "input": ["StatefulPartitionedCall/mobile_net_v3_large/bottle_neck_11/truediv", "StatefulPartitionedCall/mobile_net_v3_large/bottle_neck_11/Relu6"], "attr": {"_grappler_ArithmeticOptimizer_MinimizeBroadcasts": {"b": true}, "T": {"type": "DT_FLOAT"}}}, {"name": "StatefulPartitionedCall/mobile_net_v3_large/bottle_neck_11/depthwise_conv2d_11/depthwise", "op": "FusedDepthwiseConv2dNative", "input": ["StatefulPartitionedCall/mobile_net_v3_large/bottle_neck_11/mul", "StatefulPartitionedCall/mobile_net_v3_large/bottle_neck_11/depthwise_conv2d_11/depthwise_weights", "StatefulPartitionedCall/mobile_net_v3_large/bottle_neck_11/depthwise_conv2d_11/depthwise_bn_offset"], "attr": {"fused_ops": {"list": {"s": ["Qmlhc0FkZA=="]}}, "dilations": {"list": {"i": ["1", "1", "1", "1"]}}, "T": {"type": "DT_FLOAT"}, "explicit_paddings": {"list": {}}, "padding": {"s": "U0FNRQ=="}, "num_args": {"i": "1"}, "strides": {"list": {"i": ["1", "1", "1", "1"]}}, "data_format": {"s": "TkhXQw=="}}}, {"name": "StatefulPartitionedCall/mobile_net_v3_large/bottle_neck_11/truediv_1", "op": "Mul", "input": ["ConstantFolding/StatefulPartitionedCall/mobile_net_v3_large/bottle_neck_11/truediv_1_recip", "StatefulPartitionedCall/mobile_net_v3_large/bottle_neck_11/depthwise_conv2d_11/depthwise"], "attr": {"_grappler_ArithmeticOptimizer_MinimizeBroadcasts": {"b": true}, "T": {"type": "DT_FLOAT"}}}, {"name": "StatefulPartitionedCall/mobile_net_v3_large/bottle_neck_11/add_1", "op": "AddV2", "input": ["StatefulPartitionedCall/mobile_net_v3_large/bottle_neck_11/depthwise_conv2d_11/depthwise", "StatefulPartitionedCall/mobile_net_v3_large/bottle_neck_11/add_1/y"], "attr": {"T": {"type": "DT_FLOAT"}}}, {"name": "StatefulPartitionedCall/mobile_net_v3_large/bottle_neck_11/Relu6_1", "op": "Relu6", "input": ["StatefulPartitionedCall/mobile_net_v3_large/bottle_neck_11/add_1"], "attr": {"T": {"type": "DT_FLOAT"}}}, {"name": "StatefulPartitionedCall/mobile_net_v3_large/bottle_neck_11/mul_1", "op": "Mul", "input": ["StatefulPartitionedCall/mobile_net_v3_large/bottle_neck_11/truediv_1", "StatefulPartitionedCall/mobile_net_v3_large/bottle_neck_11/Relu6_1"], "attr": {"T": {"type": "DT_FLOAT"}, "_grappler_ArithmeticOptimizer_MinimizeBroadcasts": {"b": true}}}, {"name": "StatefulPartitionedCall/mobile_net_v3_large/bottle_neck_11/se_block_11/global_average_pooling2d_11/Mean", "op": "Mean", "input": ["StatefulPartitionedCall/mobile_net_v3_large/bottle_neck_11/mul_1", "StatefulPartitionedCall/mobile_net_v3_large/bottle_neck_11/se_block_11/global_average_pooling2d_11/Mean/reduction_indices"], "attr": {"T": {"type": "DT_FLOAT"}, "keep_dims": {"b": false}, "Tidx": {"type": "DT_INT32"}}}, {"name": "StatefulPartitionedCall/mobile_net_v3_large/bottle_neck_11/se_block_11/Relu", "op": "_FusedMatMul", "input": ["StatefulPartitionedCall/mobile_net_v3_large/bottle_neck_11/se_block_11/global_average_pooling2d_11/Mean", "unknown_231", "unknown_232"], "device": "/device:CPU:0", "attr": {"transpose_b": {"b": false}, "fused_ops": {"list": {"s": ["Qmlhc0FkZA==", "UmVsdQ=="]}}, "T": {"type": "DT_FLOAT"}, "num_args": {"i": "1"}, "transpose_a": {"b": false}, "epsilon": {"f": 0.0}}}, {"name": "StatefulPartitionedCall/mobile_net_v3_large/bottle_neck_11/se_block_11/dense_23/BiasAdd", "op": "_FusedMatMul", "input": ["StatefulPartitionedCall/mobile_net_v3_large/bottle_neck_11/se_block_11/Relu", "unknown_233", "unknown_234"], "device": "/device:CPU:0", "attr": {"transpose_b": {"b": false}, "num_args": {"i": "1"}, "T": {"type": "DT_FLOAT"}, "transpose_a": {"b": false}, "fused_ops": {"list": {"s": ["Qmlhc0FkZA=="]}}, "epsilon": {"f": 0.0}}}, {"name": "StatefulPartitionedCall/mobile_net_v3_large/bottle_neck_11/se_block_11/add", "op": "AddV2", "input": ["StatefulPartitionedCall/mobile_net_v3_large/bottle_neck_11/se_block_11/dense_23/BiasAdd", "StatefulPartitionedCall/mobile_net_v3_large/bottle_neck_11/se_block_11/add/y"], "attr": {"T": {"type": "DT_FLOAT"}}}, {"name": "StatefulPartitionedCall/mobile_net_v3_large/bottle_neck_11/se_block_11/Relu6", "op": "Relu6", "input": ["StatefulPartitionedCall/mobile_net_v3_large/bottle_neck_11/se_block_11/add"], "attr": {"T": {"type": "DT_FLOAT"}}}, {"name": "StatefulPartitionedCall/mobile_net_v3_large/bottle_neck_11/se_block_11/truediv", "op": "Mul", "input": ["StatefulPartitionedCall/mobile_net_v3_large/bottle_neck_11/se_block_11/Relu6", "ConstantFolding/StatefulPartitionedCall/mobile_net_v3_large/bottle_neck_11/se_block_11/truediv_recip"], "attr": {"T": {"type": "DT_FLOAT"}}}, {"name": "StatefulPartitionedCall/mobile_net_v3_large/bottle_neck_11/se_block_11/ExpandDims", "op": "ExpandDims", "input": ["StatefulPartitionedCall/mobile_net_v3_large/bottle_neck_11/se_block_11/truediv", "StatefulPartitionedCall/mobile_net_v3_large/bottle_neck_11/se_block_11/ExpandDims/dim"], "attr": {"T": {"type": "DT_FLOAT"}, "Tdim": {"type": "DT_INT32"}}}, {"name": "StatefulPartitionedCall/mobile_net_v3_large/bottle_neck_11/se_block_11/ExpandDims_1", "op": "ExpandDims", "input": ["StatefulPartitionedCall/mobile_net_v3_large/bottle_neck_11/se_block_11/ExpandDims", "StatefulPartitionedCall/mobile_net_v3_large/bottle_neck_11/se_block_11/ExpandDims_1/dim"], "attr": {"T": {"type": "DT_FLOAT"}, "Tdim": {"type": "DT_INT32"}}}, {"name": "StatefulPartitionedCall/mobile_net_v3_large/bottle_neck_11/se_block_11/mul", "op": "Mul", "input": ["StatefulPartitionedCall/mobile_net_v3_large/bottle_neck_11/mul_1", "StatefulPartitionedCall/mobile_net_v3_large/bottle_neck_11/se_block_11/ExpandDims_1"], "attr": {"T": {"type": "DT_FLOAT"}}}, {"name": "StatefulPartitionedCall/mobile_net_v3_large/bottle_neck_11/batch_normalization_36/FusedBatchNormV3", "op": "_FusedConv2D", "input": ["StatefulPartitionedCall/mobile_net_v3_large/bottle_neck_11/se_block_11/mul", "StatefulPartitionedCall/mobile_net_v3_large/bottle_neck_11/conv2d_24/Conv2D_weights", "StatefulPartitionedCall/mobile_net_v3_large/bottle_neck_11/conv2d_24/Conv2D_bn_offset"], "device": "/device:CPU:0", "attr": {"padding": {"s": "U0FNRQ=="}, "strides": {"list": {"i": ["1", "1", "1", "1"]}}, "explicit_paddings": {"list": {}}, "data_format": {"s": "TkhXQw=="}, "epsilon": {"f": 0.0}, "fused_ops": {"list": {"s": ["Qmlhc0FkZA=="]}}, "use_cudnn_on_gpu": {"b": true}, "T": {"type": "DT_FLOAT"}, "num_args": {"i": "1"}, "dilations": {"list": {"i": ["1", "1", "1", "1"]}}}}, {"name": "StatefulPartitionedCall/mobile_net_v3_large/bottle_neck_11/add_7/add", "op": "AddV2", "input": ["StatefulPartitionedCall/mobile_net_v3_large/bottle_neck_11/batch_normalization_36/FusedBatchNormV3", "StatefulPartitionedCall/mobile_net_v3_large/bottle_neck_10/batch_normalization_33/FusedBatchNormV3"], "attr": {"T": {"type": "DT_FLOAT"}}}, {"name": "StatefulPartitionedCall/mobile_net_v3_large/bottle_neck_12/batch_normalization_37/FusedBatchNormV3", "op": "_FusedConv2D", "input": ["StatefulPartitionedCall/mobile_net_v3_large/bottle_neck_11/add_7/add", "StatefulPartitionedCall/mobile_net_v3_large/bottle_neck_12/conv2d_25/Conv2D_weights", "StatefulPartitionedCall/mobile_net_v3_large/bottle_neck_12/conv2d_25/Conv2D_bn_offset"], "device": "/device:CPU:0", "attr": {"use_cudnn_on_gpu": {"b": true}, "fused_ops": {"list": {"s": ["Qmlhc0FkZA=="]}}, "dilations": {"list": {"i": ["1", "1", "1", "1"]}}, "T": {"type": "DT_FLOAT"}, "padding": {"s": "U0FNRQ=="}, "explicit_paddings": {"list": {}}, "num_args": {"i": "1"}, "strides": {"list": {"i": ["1", "1", "1", "1"]}}, "data_format": {"s": "TkhXQw=="}, "epsilon": {"f": 0.0}}}, {"name": "StatefulPartitionedCall/mobile_net_v3_large/bottle_neck_12/truediv", "op": "Mul", "input": ["ConstantFolding/StatefulPartitionedCall/mobile_net_v3_large/bottle_neck_12/truediv_recip", "StatefulPartitionedCall/mobile_net_v3_large/bottle_neck_12/batch_normalization_37/FusedBatchNormV3"], "attr": {"T": {"type": "DT_FLOAT"}, "_grappler_ArithmeticOptimizer_MinimizeBroadcasts": {"b": true}}}, {"name": "StatefulPartitionedCall/mobile_net_v3_large/bottle_neck_12/add", "op": "AddV2", "input": ["StatefulPartitionedCall/mobile_net_v3_large/bottle_neck_12/batch_normalization_37/FusedBatchNormV3", "StatefulPartitionedCall/mobile_net_v3_large/bottle_neck_12/add/y"], "attr": {"T": {"type": "DT_FLOAT"}}}, {"name": "StatefulPartitionedCall/mobile_net_v3_large/bottle_neck_12/Relu6", "op": "Relu6", "input": ["StatefulPartitionedCall/mobile_net_v3_large/bottle_neck_12/add"], "attr": {"T": {"type": "DT_FLOAT"}}}, {"name": "StatefulPartitionedCall/mobile_net_v3_large/bottle_neck_12/mul", "op": "Mul", "input": ["StatefulPartitionedCall/mobile_net_v3_large/bottle_neck_12/truediv", "StatefulPartitionedCall/mobile_net_v3_large/bottle_neck_12/Relu6"], "attr": {"_grappler_ArithmeticOptimizer_MinimizeBroadcasts": {"b": true}, "T": {"type": "DT_FLOAT"}}}, {"name": "StatefulPartitionedCall/mobile_net_v3_large/bottle_neck_12/depthwise_conv2d_12/depthwise", "op": "FusedDepthwiseConv2dNative", "input": ["StatefulPartitionedCall/mobile_net_v3_large/bottle_neck_12/mul", "StatefulPartitionedCall/mobile_net_v3_large/bottle_neck_12/depthwise_conv2d_12/depthwise_weights", "StatefulPartitionedCall/mobile_net_v3_large/bottle_neck_12/depthwise_conv2d_12/depthwise_bn_offset"], "attr": {"padding": {"s": "U0FNRQ=="}, "strides": {"list": {"i": ["1", "1", "1", "1"]}}, "explicit_paddings": {"list": {}}, "data_format": {"s": "TkhXQw=="}, "fused_ops": {"list": {"s": ["Qmlhc0FkZA=="]}}, "T": {"type": "DT_FLOAT"}, "num_args": {"i": "1"}, "dilations": {"list": {"i": ["1", "1", "1", "1"]}}}}, {"name": "StatefulPartitionedCall/mobile_net_v3_large/bottle_neck_12/truediv_1", "op": "Mul", "input": ["ConstantFolding/StatefulPartitionedCall/mobile_net_v3_large/bottle_neck_12/truediv_1_recip", "StatefulPartitionedCall/mobile_net_v3_large/bottle_neck_12/depthwise_conv2d_12/depthwise"], "attr": {"T": {"type": "DT_FLOAT"}, "_grappler_ArithmeticOptimizer_MinimizeBroadcasts": {"b": true}}}, {"name": "StatefulPartitionedCall/mobile_net_v3_large/bottle_neck_12/add_1", "op": "AddV2", "input": ["StatefulPartitionedCall/mobile_net_v3_large/bottle_neck_12/depthwise_conv2d_12/depthwise", "StatefulPartitionedCall/mobile_net_v3_large/bottle_neck_12/add_1/y"], "attr": {"T": {"type": "DT_FLOAT"}}}, {"name": "StatefulPartitionedCall/mobile_net_v3_large/bottle_neck_12/Relu6_1", "op": "Relu6", "input": ["StatefulPartitionedCall/mobile_net_v3_large/bottle_neck_12/add_1"], "attr": {"T": {"type": "DT_FLOAT"}}}, {"name": "StatefulPartitionedCall/mobile_net_v3_large/bottle_neck_12/mul_1", "op": "Mul", "input": ["StatefulPartitionedCall/mobile_net_v3_large/bottle_neck_12/truediv_1", "StatefulPartitionedCall/mobile_net_v3_large/bottle_neck_12/Relu6_1"], "attr": {"_grappler_ArithmeticOptimizer_MinimizeBroadcasts": {"b": true}, "T": {"type": "DT_FLOAT"}}}, {"name": "StatefulPartitionedCall/mobile_net_v3_large/bottle_neck_12/se_block_12/global_average_pooling2d_12/Mean", "op": "Mean", "input": ["StatefulPartitionedCall/mobile_net_v3_large/bottle_neck_12/mul_1", "StatefulPartitionedCall/mobile_net_v3_large/bottle_neck_12/se_block_12/global_average_pooling2d_12/Mean/reduction_indices"], "attr": {"keep_dims": {"b": false}, "Tidx": {"type": "DT_INT32"}, "T": {"type": "DT_FLOAT"}}}, {"name": "StatefulPartitionedCall/mobile_net_v3_large/bottle_neck_12/se_block_12/Relu", "op": "_FusedMatMul", "input": ["StatefulPartitionedCall/mobile_net_v3_large/bottle_neck_12/se_block_12/global_average_pooling2d_12/Mean", "unknown_253", "unknown_254"], "device": "/device:CPU:0", "attr": {"transpose_a": {"b": false}, "fused_ops": {"list": {"s": ["Qmlhc0FkZA==", "UmVsdQ=="]}}, "epsilon": {"f": 0.0}, "transpose_b": {"b": false}, "T": {"type": "DT_FLOAT"}, "num_args": {"i": "1"}}}, {"name": "StatefulPartitionedCall/mobile_net_v3_large/bottle_neck_12/se_block_12/dense_25/BiasAdd", "op": "_FusedMatMul", "input": ["StatefulPartitionedCall/mobile_net_v3_large/bottle_neck_12/se_block_12/Relu", "unknown_255", "unknown_256"], "device": "/device:CPU:0", "attr": {"transpose_b": {"b": false}, "num_args": {"i": "1"}, "T": {"type": "DT_FLOAT"}, "transpose_a": {"b": false}, "fused_ops": {"list": {"s": ["Qmlhc0FkZA=="]}}, "epsilon": {"f": 0.0}}}, {"name": "StatefulPartitionedCall/mobile_net_v3_large/bottle_neck_12/se_block_12/add", "op": "AddV2", "input": ["StatefulPartitionedCall/mobile_net_v3_large/bottle_neck_12/se_block_12/dense_25/BiasAdd", "StatefulPartitionedCall/mobile_net_v3_large/bottle_neck_12/se_block_12/add/y"], "attr": {"T": {"type": "DT_FLOAT"}}}, {"name": "StatefulPartitionedCall/mobile_net_v3_large/bottle_neck_12/se_block_12/Relu6", "op": "Relu6", "input": ["StatefulPartitionedCall/mobile_net_v3_large/bottle_neck_12/se_block_12/add"], "attr": {"T": {"type": "DT_FLOAT"}}}, {"name": "StatefulPartitionedCall/mobile_net_v3_large/bottle_neck_12/se_block_12/truediv", "op": "Mul", "input": ["StatefulPartitionedCall/mobile_net_v3_large/bottle_neck_12/se_block_12/Relu6", "ConstantFolding/StatefulPartitionedCall/mobile_net_v3_large/bottle_neck_12/se_block_12/truediv_recip"], "attr": {"T": {"type": "DT_FLOAT"}}}, {"name": "StatefulPartitionedCall/mobile_net_v3_large/bottle_neck_12/se_block_12/ExpandDims", "op": "ExpandDims", "input": ["StatefulPartitionedCall/mobile_net_v3_large/bottle_neck_12/se_block_12/truediv", "StatefulPartitionedCall/mobile_net_v3_large/bottle_neck_12/se_block_12/ExpandDims/dim"], "attr": {"T": {"type": "DT_FLOAT"}, "Tdim": {"type": "DT_INT32"}}}, {"name": "StatefulPartitionedCall/mobile_net_v3_large/bottle_neck_12/se_block_12/ExpandDims_1", "op": "ExpandDims", "input": ["StatefulPartitionedCall/mobile_net_v3_large/bottle_neck_12/se_block_12/ExpandDims", "StatefulPartitionedCall/mobile_net_v3_large/bottle_neck_12/se_block_12/ExpandDims_1/dim"], "attr": {"T": {"type": "DT_FLOAT"}, "Tdim": {"type": "DT_INT32"}}}, {"name": "StatefulPartitionedCall/mobile_net_v3_large/bottle_neck_12/se_block_12/mul", "op": "Mul", "input": ["StatefulPartitionedCall/mobile_net_v3_large/bottle_neck_12/mul_1", "StatefulPartitionedCall/mobile_net_v3_large/bottle_neck_12/se_block_12/ExpandDims_1"], "attr": {"T": {"type": "DT_FLOAT"}}}, {"name": "StatefulPartitionedCall/mobile_net_v3_large/bottle_neck_12/batch_normalization_39/FusedBatchNormV3", "op": "_FusedConv2D", "input": ["StatefulPartitionedCall/mobile_net_v3_large/bottle_neck_12/se_block_12/mul", "StatefulPartitionedCall/mobile_net_v3_large/bottle_neck_12/conv2d_26/Conv2D_weights", "StatefulPartitionedCall/mobile_net_v3_large/bottle_neck_12/conv2d_26/Conv2D_bn_offset"], "device": "/device:CPU:0", "attr": {"padding": {"s": "U0FNRQ=="}, "data_format": {"s": "TkhXQw=="}, "fused_ops": {"list": {"s": ["Qmlhc0FkZA=="]}}, "epsilon": {"f": 0.0}, "use_cudnn_on_gpu": {"b": true}, "strides": {"list": {"i": ["1", "1", "1", "1"]}}, "explicit_paddings": {"list": {}}, "num_args": {"i": "1"}, "T": {"type": "DT_FLOAT"}, "dilations": {"list": {"i": ["1", "1", "1", "1"]}}}}, {"name": "StatefulPartitionedCall/mobile_net_v3_large/bottle_neck_13/batch_normalization_40/FusedBatchNormV3", "op": "_FusedConv2D", "input": ["StatefulPartitionedCall/mobile_net_v3_large/bottle_neck_12/batch_normalization_39/FusedBatchNormV3", "StatefulPartitionedCall/mobile_net_v3_large/bottle_neck_13/conv2d_27/Conv2D_weights", "StatefulPartitionedCall/mobile_net_v3_large/bottle_neck_13/conv2d_27/Conv2D_bn_offset"], "device": "/device:CPU:0", "attr": {"padding": {"s": "U0FNRQ=="}, "data_format": {"s": "TkhXQw=="}, "fused_ops": {"list": {"s": ["Qmlhc0FkZA=="]}}, "epsilon": {"f": 0.0}, "use_cudnn_on_gpu": {"b": true}, "strides": {"list": {"i": ["1", "1", "1", "1"]}}, "explicit_paddings": {"list": {}}, "num_args": {"i": "1"}, "T": {"type": "DT_FLOAT"}, "dilations": {"list": {"i": ["1", "1", "1", "1"]}}}}, {"name": "StatefulPartitionedCall/mobile_net_v3_large/bottle_neck_13/truediv", "op": "Mul", "input": ["ConstantFolding/StatefulPartitionedCall/mobile_net_v3_large/bottle_neck_13/truediv_recip", "StatefulPartitionedCall/mobile_net_v3_large/bottle_neck_13/batch_normalization_40/FusedBatchNormV3"], "attr": {"_grappler_ArithmeticOptimizer_MinimizeBroadcasts": {"b": true}, "T": {"type": "DT_FLOAT"}}}, {"name": "StatefulPartitionedCall/mobile_net_v3_large/bottle_neck_13/add", "op": "AddV2", "input": ["StatefulPartitionedCall/mobile_net_v3_large/bottle_neck_13/batch_normalization_40/FusedBatchNormV3", "StatefulPartitionedCall/mobile_net_v3_large/bottle_neck_13/add/y"], "attr": {"T": {"type": "DT_FLOAT"}}}, {"name": "StatefulPartitionedCall/mobile_net_v3_large/bottle_neck_13/Relu6", "op": "Relu6", "input": ["StatefulPartitionedCall/mobile_net_v3_large/bottle_neck_13/add"], "attr": {"T": {"type": "DT_FLOAT"}}}, {"name": "StatefulPartitionedCall/mobile_net_v3_large/bottle_neck_13/mul", "op": "Mul", "input": ["StatefulPartitionedCall/mobile_net_v3_large/bottle_neck_13/truediv", "StatefulPartitionedCall/mobile_net_v3_large/bottle_neck_13/Relu6"], "attr": {"_grappler_ArithmeticOptimizer_MinimizeBroadcasts": {"b": true}, "T": {"type": "DT_FLOAT"}}}, {"name": "StatefulPartitionedCall/mobile_net_v3_large/bottle_neck_13/depthwise_conv2d_13/depthwise", "op": "FusedDepthwiseConv2dNative", "input": ["StatefulPartitionedCall/mobile_net_v3_large/bottle_neck_13/mul", "StatefulPartitionedCall/mobile_net_v3_large/bottle_neck_13/depthwise_conv2d_13/depthwise_weights", "StatefulPartitionedCall/mobile_net_v3_large/bottle_neck_13/depthwise_conv2d_13/depthwise_bn_offset"], "attr": {"T": {"type": "DT_FLOAT"}, "num_args": {"i": "1"}, "fused_ops": {"list": {"s": ["Qmlhc0FkZA=="]}}, "strides": {"list": {"i": ["1", "1", "1", "1"]}}, "explicit_paddings": {"list": {}}, "dilations": {"list": {"i": ["1", "1", "1", "1"]}}, "padding": {"s": "U0FNRQ=="}, "data_format": {"s": "TkhXQw=="}}}, {"name": "StatefulPartitionedCall/mobile_net_v3_large/bottle_neck_13/truediv_1", "op": "Mul", "input": ["ConstantFolding/StatefulPartitionedCall/mobile_net_v3_large/bottle_neck_13/truediv_1_recip", "StatefulPartitionedCall/mobile_net_v3_large/bottle_neck_13/depthwise_conv2d_13/depthwise"], "attr": {"T": {"type": "DT_FLOAT"}, "_grappler_ArithmeticOptimizer_MinimizeBroadcasts": {"b": true}}}, {"name": "StatefulPartitionedCall/mobile_net_v3_large/bottle_neck_13/add_1", "op": "AddV2", "input": ["StatefulPartitionedCall/mobile_net_v3_large/bottle_neck_13/depthwise_conv2d_13/depthwise", "StatefulPartitionedCall/mobile_net_v3_large/bottle_neck_13/add_1/y"], "attr": {"T": {"type": "DT_FLOAT"}}}, {"name": "StatefulPartitionedCall/mobile_net_v3_large/bottle_neck_13/Relu6_1", "op": "Relu6", "input": ["StatefulPartitionedCall/mobile_net_v3_large/bottle_neck_13/add_1"], "attr": {"T": {"type": "DT_FLOAT"}}}, {"name": "StatefulPartitionedCall/mobile_net_v3_large/bottle_neck_13/mul_1", "op": "Mul", "input": ["StatefulPartitionedCall/mobile_net_v3_large/bottle_neck_13/truediv_1", "StatefulPartitionedCall/mobile_net_v3_large/bottle_neck_13/Relu6_1"], "attr": {"T": {"type": "DT_FLOAT"}, "_grappler_ArithmeticOptimizer_MinimizeBroadcasts": {"b": true}}}, {"name": "StatefulPartitionedCall/mobile_net_v3_large/bottle_neck_13/se_block_13/global_average_pooling2d_13/Mean", "op": "Mean", "input": ["StatefulPartitionedCall/mobile_net_v3_large/bottle_neck_13/mul_1", "StatefulPartitionedCall/mobile_net_v3_large/bottle_neck_13/se_block_13/global_average_pooling2d_13/Mean/reduction_indices"], "attr": {"T": {"type": "DT_FLOAT"}, "Tidx": {"type": "DT_INT32"}, "keep_dims": {"b": false}}}, {"name": "StatefulPartitionedCall/mobile_net_v3_large/bottle_neck_13/se_block_13/Relu", "op": "_FusedMatMul", "input": ["StatefulPartitionedCall/mobile_net_v3_large/bottle_neck_13/se_block_13/global_average_pooling2d_13/Mean", "unknown_275", "unknown_276"], "device": "/device:CPU:0", "attr": {"transpose_a": {"b": false}, "epsilon": {"f": 0.0}, "transpose_b": {"b": false}, "T": {"type": "DT_FLOAT"}, "fused_ops": {"list": {"s": ["Qmlhc0FkZA==", "UmVsdQ=="]}}, "num_args": {"i": "1"}}}, {"name": "StatefulPartitionedCall/mobile_net_v3_large/bottle_neck_13/se_block_13/dense_27/BiasAdd", "op": "_FusedMatMul", "input": ["StatefulPartitionedCall/mobile_net_v3_large/bottle_neck_13/se_block_13/Relu", "unknown_277", "unknown_278"], "device": "/device:CPU:0", "attr": {"num_args": {"i": "1"}, "fused_ops": {"list": {"s": ["Qmlhc0FkZA=="]}}, "epsilon": {"f": 0.0}, "transpose_b": {"b": false}, "transpose_a": {"b": false}, "T": {"type": "DT_FLOAT"}}}, {"name": "StatefulPartitionedCall/mobile_net_v3_large/bottle_neck_13/se_block_13/add", "op": "AddV2", "input": ["StatefulPartitionedCall/mobile_net_v3_large/bottle_neck_13/se_block_13/dense_27/BiasAdd", "StatefulPartitionedCall/mobile_net_v3_large/bottle_neck_13/se_block_13/add/y"], "attr": {"T": {"type": "DT_FLOAT"}}}, {"name": "StatefulPartitionedCall/mobile_net_v3_large/bottle_neck_13/se_block_13/Relu6", "op": "Relu6", "input": ["StatefulPartitionedCall/mobile_net_v3_large/bottle_neck_13/se_block_13/add"], "attr": {"T": {"type": "DT_FLOAT"}}}, {"name": "StatefulPartitionedCall/mobile_net_v3_large/bottle_neck_13/se_block_13/truediv", "op": "Mul", "input": ["StatefulPartitionedCall/mobile_net_v3_large/bottle_neck_13/se_block_13/Relu6", "ConstantFolding/StatefulPartitionedCall/mobile_net_v3_large/bottle_neck_13/se_block_13/truediv_recip"], "attr": {"T": {"type": "DT_FLOAT"}}}, {"name": "StatefulPartitionedCall/mobile_net_v3_large/bottle_neck_13/se_block_13/ExpandDims", "op": "ExpandDims", "input": ["StatefulPartitionedCall/mobile_net_v3_large/bottle_neck_13/se_block_13/truediv", "StatefulPartitionedCall/mobile_net_v3_large/bottle_neck_13/se_block_13/ExpandDims/dim"], "attr": {"T": {"type": "DT_FLOAT"}, "Tdim": {"type": "DT_INT32"}}}, {"name": "StatefulPartitionedCall/mobile_net_v3_large/bottle_neck_13/se_block_13/ExpandDims_1", "op": "ExpandDims", "input": ["StatefulPartitionedCall/mobile_net_v3_large/bottle_neck_13/se_block_13/ExpandDims", "StatefulPartitionedCall/mobile_net_v3_large/bottle_neck_13/se_block_13/ExpandDims_1/dim"], "attr": {"T": {"type": "DT_FLOAT"}, "Tdim": {"type": "DT_INT32"}}}, {"name": "StatefulPartitionedCall/mobile_net_v3_large/bottle_neck_13/se_block_13/mul", "op": "Mul", "input": ["StatefulPartitionedCall/mobile_net_v3_large/bottle_neck_13/mul_1", "StatefulPartitionedCall/mobile_net_v3_large/bottle_neck_13/se_block_13/ExpandDims_1"], "attr": {"T": {"type": "DT_FLOAT"}}}, {"name": "StatefulPartitionedCall/mobile_net_v3_large/bottle_neck_13/batch_normalization_42/FusedBatchNormV3", "op": "_FusedConv2D", "input": ["StatefulPartitionedCall/mobile_net_v3_large/bottle_neck_13/se_block_13/mul", "StatefulPartitionedCall/mobile_net_v3_large/bottle_neck_13/conv2d_28/Conv2D_weights", "StatefulPartitionedCall/mobile_net_v3_large/bottle_neck_13/conv2d_28/Conv2D_bn_offset"], "device": "/device:CPU:0", "attr": {"data_format": {"s": "TkhXQw=="}, "fused_ops": {"list": {"s": ["Qmlhc0FkZA=="]}}, "epsilon": {"f": 0.0}, "T": {"type": "DT_FLOAT"}, "padding": {"s": "U0FNRQ=="}, "use_cudnn_on_gpu": {"b": true}, "dilations": {"list": {"i": ["1", "1", "1", "1"]}}, "explicit_paddings": {"list": {}}, "num_args": {"i": "1"}, "strides": {"list": {"i": ["1", "1", "1", "1"]}}}}, {"name": "StatefulPartitionedCall/mobile_net_v3_large/bottle_neck_13/add_8/add", "op": "AddV2", "input": ["StatefulPartitionedCall/mobile_net_v3_large/bottle_neck_13/batch_normalization_42/FusedBatchNormV3", "StatefulPartitionedCall/mobile_net_v3_large/bottle_neck_12/batch_normalization_39/FusedBatchNormV3"], "attr": {"T": {"type": "DT_FLOAT"}}}, {"name": "StatefulPartitionedCall/mobile_net_v3_large/bottle_neck_14/batch_normalization_43/FusedBatchNormV3", "op": "_FusedConv2D", "input": ["StatefulPartitionedCall/mobile_net_v3_large/bottle_neck_13/add_8/add", "StatefulPartitionedCall/mobile_net_v3_large/bottle_neck_14/conv2d_29/Conv2D_weights", "StatefulPartitionedCall/mobile_net_v3_large/bottle_neck_14/conv2d_29/Conv2D_bn_offset"], "device": "/device:CPU:0", "attr": {"dilations": {"list": {"i": ["1", "1", "1", "1"]}}, "padding": {"s": "U0FNRQ=="}, "strides": {"list": {"i": ["1", "1", "1", "1"]}}, "data_format": {"s": "TkhXQw=="}, "epsilon": {"f": 0.0}, "use_cudnn_on_gpu": {"b": true}, "T": {"type": "DT_FLOAT"}, "fused_ops": {"list": {"s": ["Qmlhc0FkZA=="]}}, "explicit_paddings": {"list": {}}, "num_args": {"i": "1"}}}, {"name": "StatefulPartitionedCall/mobile_net_v3_large/bottle_neck_14/truediv", "op": "Mul", "input": ["ConstantFolding/StatefulPartitionedCall/mobile_net_v3_large/bottle_neck_14/truediv_recip", "StatefulPartitionedCall/mobile_net_v3_large/bottle_neck_14/batch_normalization_43/FusedBatchNormV3"], "attr": {"T": {"type": "DT_FLOAT"}, "_grappler_ArithmeticOptimizer_MinimizeBroadcasts": {"b": true}}}, {"name": "StatefulPartitionedCall/mobile_net_v3_large/bottle_neck_14/add", "op": "AddV2", "input": ["StatefulPartitionedCall/mobile_net_v3_large/bottle_neck_14/batch_normalization_43/FusedBatchNormV3", "StatefulPartitionedCall/mobile_net_v3_large/bottle_neck_14/add/y"], "attr": {"T": {"type": "DT_FLOAT"}}}, {"name": "StatefulPartitionedCall/mobile_net_v3_large/bottle_neck_14/Relu6", "op": "Relu6", "input": ["StatefulPartitionedCall/mobile_net_v3_large/bottle_neck_14/add"], "attr": {"T": {"type": "DT_FLOAT"}}}, {"name": "StatefulPartitionedCall/mobile_net_v3_large/bottle_neck_14/mul", "op": "Mul", "input": ["StatefulPartitionedCall/mobile_net_v3_large/bottle_neck_14/truediv", "StatefulPartitionedCall/mobile_net_v3_large/bottle_neck_14/Relu6"], "attr": {"_grappler_ArithmeticOptimizer_MinimizeBroadcasts": {"b": true}, "T": {"type": "DT_FLOAT"}}}, {"name": "StatefulPartitionedCall/mobile_net_v3_large/bottle_neck_14/depthwise_conv2d_14/depthwise", "op": "FusedDepthwiseConv2dNative", "input": ["StatefulPartitionedCall/mobile_net_v3_large/bottle_neck_14/mul", "StatefulPartitionedCall/mobile_net_v3_large/bottle_neck_14/depthwise_conv2d_14/depthwise_weights", "StatefulPartitionedCall/mobile_net_v3_large/bottle_neck_14/depthwise_conv2d_14/depthwise_bn_offset"], "attr": {"T": {"type": "DT_FLOAT"}, "fused_ops": {"list": {"s": ["Qmlhc0FkZA=="]}}, "num_args": {"i": "1"}, "explicit_paddings": {"list": {}}, "strides": {"list": {"i": ["1", "1", "1", "1"]}}, "dilations": {"list": {"i": ["1", "1", "1", "1"]}}, "padding": {"s": "U0FNRQ=="}, "data_format": {"s": "TkhXQw=="}}}, {"name": "StatefulPartitionedCall/mobile_net_v3_large/bottle_neck_14/truediv_1", "op": "Mul", "input": ["ConstantFolding/StatefulPartitionedCall/mobile_net_v3_large/bottle_neck_14/truediv_1_recip", "StatefulPartitionedCall/mobile_net_v3_large/bottle_neck_14/depthwise_conv2d_14/depthwise"], "attr": {"T": {"type": "DT_FLOAT"}, "_grappler_ArithmeticOptimizer_MinimizeBroadcasts": {"b": true}}}, {"name": "StatefulPartitionedCall/mobile_net_v3_large/bottle_neck_14/add_1", "op": "AddV2", "input": ["StatefulPartitionedCall/mobile_net_v3_large/bottle_neck_14/depthwise_conv2d_14/depthwise", "StatefulPartitionedCall/mobile_net_v3_large/bottle_neck_14/add_1/y"], "attr": {"T": {"type": "DT_FLOAT"}}}, {"name": "StatefulPartitionedCall/mobile_net_v3_large/bottle_neck_14/Relu6_1", "op": "Relu6", "input": ["StatefulPartitionedCall/mobile_net_v3_large/bottle_neck_14/add_1"], "attr": {"T": {"type": "DT_FLOAT"}}}, {"name": "StatefulPartitionedCall/mobile_net_v3_large/bottle_neck_14/mul_1", "op": "Mul", "input": ["StatefulPartitionedCall/mobile_net_v3_large/bottle_neck_14/truediv_1", "StatefulPartitionedCall/mobile_net_v3_large/bottle_neck_14/Relu6_1"], "attr": {"_grappler_ArithmeticOptimizer_MinimizeBroadcasts": {"b": true}, "T": {"type": "DT_FLOAT"}}}, {"name": "StatefulPartitionedCall/mobile_net_v3_large/bottle_neck_14/se_block_14/global_average_pooling2d_14/Mean", "op": "Mean", "input": ["StatefulPartitionedCall/mobile_net_v3_large/bottle_neck_14/mul_1", "StatefulPartitionedCall/mobile_net_v3_large/bottle_neck_14/se_block_14/global_average_pooling2d_14/Mean/reduction_indices"], "attr": {"keep_dims": {"b": false}, "Tidx": {"type": "DT_INT32"}, "T": {"type": "DT_FLOAT"}}}, {"name": "StatefulPartitionedCall/mobile_net_v3_large/bottle_neck_14/se_block_14/Relu", "op": "_FusedMatMul", "input": ["StatefulPartitionedCall/mobile_net_v3_large/bottle_neck_14/se_block_14/global_average_pooling2d_14/Mean", "unknown_297", "unknown_298"], "device": "/device:CPU:0", "attr": {"num_args": {"i": "1"}, "fused_ops": {"list": {"s": ["Qmlhc0FkZA==", "UmVsdQ=="]}}, "epsilon": {"f": 0.0}, "transpose_b": {"b": false}, "transpose_a": {"b": false}, "T": {"type": "DT_FLOAT"}}}, {"name": "StatefulPartitionedCall/mobile_net_v3_large/bottle_neck_14/se_block_14/dense_29/BiasAdd", "op": "_FusedMatMul", "input": ["StatefulPartitionedCall/mobile_net_v3_large/bottle_neck_14/se_block_14/Relu", "unknown_299", "unknown_300"], "device": "/device:CPU:0", "attr": {"epsilon": {"f": 0.0}, "transpose_a": {"b": false}, "transpose_b": {"b": false}, "T": {"type": "DT_FLOAT"}, "num_args": {"i": "1"}, "fused_ops": {"list": {"s": ["Qmlhc0FkZA=="]}}}}, {"name": "StatefulPartitionedCall/mobile_net_v3_large/bottle_neck_14/se_block_14/add", "op": "AddV2", "input": ["StatefulPartitionedCall/mobile_net_v3_large/bottle_neck_14/se_block_14/dense_29/BiasAdd", "StatefulPartitionedCall/mobile_net_v3_large/bottle_neck_14/se_block_14/add/y"], "attr": {"T": {"type": "DT_FLOAT"}}}, {"name": "StatefulPartitionedCall/mobile_net_v3_large/bottle_neck_14/se_block_14/Relu6", "op": "Relu6", "input": ["StatefulPartitionedCall/mobile_net_v3_large/bottle_neck_14/se_block_14/add"], "attr": {"T": {"type": "DT_FLOAT"}}}, {"name": "StatefulPartitionedCall/mobile_net_v3_large/bottle_neck_14/se_block_14/truediv", "op": "Mul", "input": ["StatefulPartitionedCall/mobile_net_v3_large/bottle_neck_14/se_block_14/Relu6", "ConstantFolding/StatefulPartitionedCall/mobile_net_v3_large/bottle_neck_14/se_block_14/truediv_recip"], "attr": {"T": {"type": "DT_FLOAT"}}}, {"name": "StatefulPartitionedCall/mobile_net_v3_large/bottle_neck_14/se_block_14/ExpandDims", "op": "ExpandDims", "input": ["StatefulPartitionedCall/mobile_net_v3_large/bottle_neck_14/se_block_14/truediv", "StatefulPartitionedCall/mobile_net_v3_large/bottle_neck_14/se_block_14/ExpandDims/dim"], "attr": {"T": {"type": "DT_FLOAT"}, "Tdim": {"type": "DT_INT32"}}}, {"name": "StatefulPartitionedCall/mobile_net_v3_large/bottle_neck_14/se_block_14/ExpandDims_1", "op": "ExpandDims", "input": ["StatefulPartitionedCall/mobile_net_v3_large/bottle_neck_14/se_block_14/ExpandDims", "StatefulPartitionedCall/mobile_net_v3_large/bottle_neck_14/se_block_14/ExpandDims_1/dim"], "attr": {"T": {"type": "DT_FLOAT"}, "Tdim": {"type": "DT_INT32"}}}, {"name": "StatefulPartitionedCall/mobile_net_v3_large/bottle_neck_14/se_block_14/mul", "op": "Mul", "input": ["StatefulPartitionedCall/mobile_net_v3_large/bottle_neck_14/mul_1", "StatefulPartitionedCall/mobile_net_v3_large/bottle_neck_14/se_block_14/ExpandDims_1"], "attr": {"T": {"type": "DT_FLOAT"}}}, {"name": "StatefulPartitionedCall/mobile_net_v3_large/bottle_neck_14/batch_normalization_45/FusedBatchNormV3", "op": "_FusedConv2D", "input": ["StatefulPartitionedCall/mobile_net_v3_large/bottle_neck_14/se_block_14/mul", "StatefulPartitionedCall/mobile_net_v3_large/bottle_neck_14/conv2d_30/Conv2D_weights", "StatefulPartitionedCall/mobile_net_v3_large/bottle_neck_14/conv2d_30/Conv2D_bn_offset"], "device": "/device:CPU:0", "attr": {"use_cudnn_on_gpu": {"b": true}, "num_args": {"i": "1"}, "dilations": {"list": {"i": ["1", "1", "1", "1"]}}, "strides": {"list": {"i": ["1", "1", "1", "1"]}}, "explicit_paddings": {"list": {}}, "data_format": {"s": "TkhXQw=="}, "fused_ops": {"list": {"s": ["Qmlhc0FkZA=="]}}, "epsilon": {"f": 0.0}, "T": {"type": "DT_FLOAT"}, "padding": {"s": "U0FNRQ=="}}}, {"name": "StatefulPartitionedCall/mobile_net_v3_large/bottle_neck_14/add_9/add", "op": "AddV2", "input": ["StatefulPartitionedCall/mobile_net_v3_large/bottle_neck_14/batch_normalization_45/FusedBatchNormV3", "StatefulPartitionedCall/mobile_net_v3_large/bottle_neck_13/add_8/add"], "attr": {"T": {"type": "DT_FLOAT"}}}, {"name": "StatefulPartitionedCall/mobile_net_v3_large/batch_normalization_46/FusedBatchNormV3", "op": "_FusedConv2D", "input": ["StatefulPartitionedCall/mobile_net_v3_large/bottle_neck_14/add_9/add", "StatefulPartitionedCall/mobile_net_v3_large/conv2d_31/Conv2D_weights", "StatefulPartitionedCall/mobile_net_v3_large/conv2d_31/Conv2D_bn_offset"], "device": "/device:CPU:0", "attr": {"dilations": {"list": {"i": ["1", "1", "1", "1"]}}, "padding": {"s": "U0FNRQ=="}, "strides": {"list": {"i": ["1", "1", "1", "1"]}}, "data_format": {"s": "TkhXQw=="}, "epsilon": {"f": 0.0}, "use_cudnn_on_gpu": {"b": true}, "T": {"type": "DT_FLOAT"}, "fused_ops": {"list": {"s": ["Qmlhc0FkZA=="]}}, "explicit_paddings": {"list": {}}, "num_args": {"i": "1"}}}, {"name": "StatefulPartitionedCall/mobile_net_v3_large/truediv_1", "op": "Mul", "input": ["ConstantFolding/StatefulPartitionedCall/mobile_net_v3_large/truediv_1_recip", "StatefulPartitionedCall/mobile_net_v3_large/batch_normalization_46/FusedBatchNormV3"], "attr": {"_grappler_ArithmeticOptimizer_MinimizeBroadcasts": {"b": true}, "T": {"type": "DT_FLOAT"}}}, {"name": "StatefulPartitionedCall/mobile_net_v3_large/add_1", "op": "AddV2", "input": ["StatefulPartitionedCall/mobile_net_v3_large/batch_normalization_46/FusedBatchNormV3", "StatefulPartitionedCall/mobile_net_v3_large/add_1/y"], "attr": {"T": {"type": "DT_FLOAT"}}}, {"name": "StatefulPartitionedCall/mobile_net_v3_large/Relu6_1", "op": "Relu6", "input": ["StatefulPartitionedCall/mobile_net_v3_large/add_1"], "attr": {"T": {"type": "DT_FLOAT"}}}, {"name": "StatefulPartitionedCall/mobile_net_v3_large/mul_1", "op": "Mul", "input": ["StatefulPartitionedCall/mobile_net_v3_large/truediv_1", "StatefulPartitionedCall/mobile_net_v3_large/Relu6_1"], "attr": {"_grappler_ArithmeticOptimizer_MinimizeBroadcasts": {"b": true}, "T": {"type": "DT_FLOAT"}}}, {"name": "StatefulPartitionedCall/mobile_net_v3_large/average_pooling2d/AvgPool", "op": "AvgPool", "input": ["StatefulPartitionedCall/mobile_net_v3_large/mul_1"], "attr": {"strides": {"list": {"i": ["1", "1", "1", "1"]}}, "ksize": {"list": {"i": ["1", "7", "7", "1"]}}, "padding": {"s": "VkFMSUQ="}, "T": {"type": "DT_FLOAT"}, "data_format": {"s": "TkhXQw=="}}}, {"name": "StatefulPartitionedCall/mobile_net_v3_large/conv2d_32/BiasAdd", "op": "_FusedConv2D", "input": ["StatefulPartitionedCall/mobile_net_v3_large/average_pooling2d/AvgPool", "unknown_313", "unknown_314"], "device": "/device:CPU:0", "attr": {"padding": {"s": "U0FNRQ=="}, "strides": {"list": {"i": ["1", "1", "1", "1"]}}, "explicit_paddings": {"list": {}}, "data_format": {"s": "TkhXQw=="}, "epsilon": {"f": 0.0}, "fused_ops": {"list": {"s": ["Qmlhc0FkZA=="]}}, "use_cudnn_on_gpu": {"b": true}, "T": {"type": "DT_FLOAT"}, "num_args": {"i": "1"}, "dilations": {"list": {"i": ["1", "1", "1", "1"]}}}}, {"name": "StatefulPartitionedCall/mobile_net_v3_large/truediv_2", "op": "Mul", "input": ["ConstantFolding/StatefulPartitionedCall/mobile_net_v3_large/truediv_2_recip", "StatefulPartitionedCall/mobile_net_v3_large/conv2d_32/BiasAdd"], "attr": {"_grappler_ArithmeticOptimizer_MinimizeBroadcasts": {"b": true}, "T": {"type": "DT_FLOAT"}}}, {"name": "StatefulPartitionedCall/mobile_net_v3_large/add_2", "op": "AddV2", "input": ["StatefulPartitionedCall/mobile_net_v3_large/conv2d_32/BiasAdd", "StatefulPartitionedCall/mobile_net_v3_large/add_2/y"], "attr": {"T": {"type": "DT_FLOAT"}}}, {"name": "StatefulPartitionedCall/mobile_net_v3_large/Relu6_2", "op": "Relu6", "input": ["StatefulPartitionedCall/mobile_net_v3_large/add_2"], "attr": {"T": {"type": "DT_FLOAT"}}}, {"name": "StatefulPartitionedCall/mobile_net_v3_large/mul_2", "op": "Mul", "input": ["StatefulPartitionedCall/mobile_net_v3_large/truediv_2", "StatefulPartitionedCall/mobile_net_v3_large/Relu6_2"], "attr": {"_grappler_ArithmeticOptimizer_MinimizeBroadcasts": {"b": true}, "T": {"type": "DT_FLOAT"}}}, {"name": "StatefulPartitionedCall/mobile_net_v3_large/conv2d_33/BiasAdd", "op": "_FusedConv2D", "input": ["StatefulPartitionedCall/mobile_net_v3_large/mul_2", "unknown_315", "unknown_316"], "device": "/device:CPU:0", "attr": {"use_cudnn_on_gpu": {"b": true}, "num_args": {"i": "1"}, "dilations": {"list": {"i": ["1", "1", "1", "1"]}}, "strides": {"list": {"i": ["1", "1", "1", "1"]}}, "explicit_paddings": {"list": {}}, "data_format": {"s": "TkhXQw=="}, "fused_ops": {"list": {"s": ["Qmlhc0FkZA=="]}}, "epsilon": {"f": 0.0}, "T": {"type": "DT_FLOAT"}, "padding": {"s": "U0FNRQ=="}}}, {"name": "StatefulPartitionedCall/mobile_net_v3_large/conv2d_33/Max", "op": "Max", "input": ["StatefulPartitionedCall/mobile_net_v3_large/conv2d_33/BiasAdd", "StatefulPartitionedCall/mobile_net_v3_large/conv2d_33/Max/reduction_indices"], "attr": {"T": {"type": "DT_FLOAT"}, "Tidx": {"type": "DT_INT32"}, "keep_dims": {"b": true}}}, {"name": "StatefulPartitionedCall/mobile_net_v3_large/conv2d_33/sub", "op": "Sub", "input": ["StatefulPartitionedCall/mobile_net_v3_large/conv2d_33/BiasAdd", "StatefulPartitionedCall/mobile_net_v3_large/conv2d_33/Max"], "attr": {"T": {"type": "DT_FLOAT"}}}, {"name": "StatefulPartitionedCall/mobile_net_v3_large/conv2d_33/Exp", "op": "Exp", "input": ["StatefulPartitionedCall/mobile_net_v3_large/conv2d_33/sub"], "attr": {"T": {"type": "DT_FLOAT"}}}, {"name": "StatefulPartitionedCall/mobile_net_v3_large/conv2d_33/Sum", "op": "Sum", "input": ["StatefulPartitionedCall/mobile_net_v3_large/conv2d_33/Exp", "StatefulPartitionedCall/mobile_net_v3_large/conv2d_33/Sum/reduction_indices"], "attr": {"T": {"type": "DT_FLOAT"}, "Tidx": {"type": "DT_INT32"}, "keep_dims": {"b": true}}}, {"name": "StatefulPartitionedCall/mobile_net_v3_large/conv2d_33/truediv", "op": "RealDiv", "input": ["StatefulPartitionedCall/mobile_net_v3_large/conv2d_33/Exp", "StatefulPartitionedCall/mobile_net_v3_large/conv2d_33/Sum"], "attr": {"T": {"type": "DT_FLOAT"}}}, {"name": "Identity", "op": "Identity", "input": ["StatefulPartitionedCall/mobile_net_v3_large/conv2d_33/truediv"], "attr": {"T": {"type": "DT_FLOAT"}}}], "library": {}, "versions": {"producer": 561}}, "weightsManifest": [{"paths": ["group1-shard1of3.bin", "group1-shard2of3.bin", "group1-shard3of3.bin"], "weights": [{"name": "ConstantFolding/StatefulPartitionedCall/mobile_net_v3_large/truediv_2_recip", "shape": [], "dtype": "float32"}, {"name": "ConstantFolding/StatefulPartitionedCall/mobile_net_v3_large/truediv_1_recip", "shape": [], "dtype": "float32"}, {"name": "ConstantFolding/StatefulPartitionedCall/mobile_net_v3_large/bottle_neck_14/truediv_1_recip", "shape": [], "dtype": "float32"}, {"name": "ConstantFolding/StatefulPartitionedCall/mobile_net_v3_large/bottle_neck_14/truediv_recip", "shape": [], "dtype": "float32"}, {"name": "StatefulPartitionedCall/mobile_net_v3_large/bottle_neck_14/add/y", "shape": [], "dtype": "float32"}, {"name": "StatefulPartitionedCall/mobile_net_v3_large/bottle_neck_14/add_1/y", "shape": [], "dtype": "float32"}, {"name": "StatefulPartitionedCall/mobile_net_v3_large/bottle_neck_14/se_block_14/global_average_pooling2d_14/Mean/reduction_indices", "shape": [2], "dtype": "int32"}, {"name": "unknown_297", "shape": [960, 60], "dtype": "float32"}, {"name": "unknown_298", "shape": [60], "dtype": "float32"}, {"name": "unknown_299", "shape": [60, 960], "dtype": "float32"}, {"name": "unknown_300", "shape": [960], "dtype": "float32"}, {"name": "StatefulPartitionedCall/mobile_net_v3_large/bottle_neck_14/se_block_14/add/y", "shape": [], "dtype": "float32"}, {"name": "ConstantFolding/StatefulPartitionedCall/mobile_net_v3_large/bottle_neck_14/se_block_14/truediv_recip", "shape": [], "dtype": "float32"}, {"name": "StatefulPartitionedCall/mobile_net_v3_large/bottle_neck_14/se_block_14/ExpandDims/dim", "shape": [], "dtype": "int32"}, {"name": "StatefulPartitionedCall/mobile_net_v3_large/bottle_neck_14/se_block_14/ExpandDims_1/dim", "shape": [], "dtype": "int32"}, {"name": "ConstantFolding/StatefulPartitionedCall/mobile_net_v3_large/bottle_neck_13/truediv_1_recip", "shape": [], "dtype": "float32"}, {"name": "ConstantFolding/StatefulPartitionedCall/mobile_net_v3_large/bottle_neck_13/truediv_recip", "shape": [], "dtype": "float32"}, {"name": "StatefulPartitionedCall/mobile_net_v3_large/bottle_neck_13/add/y", "shape": [], "dtype": "float32"}, {"name": "StatefulPartitionedCall/mobile_net_v3_large/bottle_neck_13/add_1/y", "shape": [], "dtype": "float32"}, {"name": "StatefulPartitionedCall/mobile_net_v3_large/bottle_neck_13/se_block_13/global_average_pooling2d_13/Mean/reduction_indices", "shape": [2], "dtype": "int32"}, {"name": "unknown_275", "shape": [960, 60], "dtype": "float32"}, {"name": "unknown_276", "shape": [60], "dtype": "float32"}, {"name": "unknown_277", "shape": [60, 960], "dtype": "float32"}, {"name": "unknown_278", "shape": [960], "dtype": "float32"}, {"name": "StatefulPartitionedCall/mobile_net_v3_large/bottle_neck_13/se_block_13/add/y", "shape": [], "dtype": "float32"}, {"name": "ConstantFolding/StatefulPartitionedCall/mobile_net_v3_large/bottle_neck_13/se_block_13/truediv_recip", "shape": [], "dtype": "float32"}, {"name": "StatefulPartitionedCall/mobile_net_v3_large/bottle_neck_13/se_block_13/ExpandDims/dim", "shape": [], "dtype": "int32"}, {"name": "StatefulPartitionedCall/mobile_net_v3_large/bottle_neck_13/se_block_13/ExpandDims_1/dim", "shape": [], "dtype": "int32"}, {"name": "ConstantFolding/StatefulPartitionedCall/mobile_net_v3_large/bottle_neck_12/truediv_1_recip", "shape": [], "dtype": "float32"}, {"name": "ConstantFolding/StatefulPartitionedCall/mobile_net_v3_large/bottle_neck_12/truediv_recip", "shape": [], "dtype": "float32"}, {"name": "ConstantFolding/StatefulPartitionedCall/mobile_net_v3_large/bottle_neck_11/truediv_1_recip", "shape": [], "dtype": "float32"}, {"name": "ConstantFolding/StatefulPartitionedCall/mobile_net_v3_large/bottle_neck_11/truediv_recip", "shape": [], "dtype": "float32"}, {"name": "StatefulPartitionedCall/mobile_net_v3_large/bottle_neck_11/add/y", "shape": [], "dtype": "float32"}, {"name": "StatefulPartitionedCall/mobile_net_v3_large/bottle_neck_11/add_1/y", "shape": [], "dtype": "float32"}, {"name": "StatefulPartitionedCall/mobile_net_v3_large/bottle_neck_11/se_block_11/global_average_pooling2d_11/Mean/reduction_indices", "shape": [2], "dtype": "int32"}, {"name": "unknown_231", "shape": [672, 42], "dtype": "float32"}, {"name": "unknown_232", "shape": [42], "dtype": "float32"}, {"name": "unknown_233", "shape": [42, 672], "dtype": "float32"}, {"name": "unknown_234", "shape": [672], "dtype": "float32"}, {"name": "StatefulPartitionedCall/mobile_net_v3_large/bottle_neck_11/se_block_11/add/y", "shape": [], "dtype": "float32"}, {"name": "ConstantFolding/StatefulPartitionedCall/mobile_net_v3_large/bottle_neck_11/se_block_11/truediv_recip", "shape": [], "dtype": "float32"}, {"name": "StatefulPartitionedCall/mobile_net_v3_large/bottle_neck_11/se_block_11/ExpandDims/dim", "shape": [], "dtype": "int32"}, {"name": "StatefulPartitionedCall/mobile_net_v3_large/bottle_neck_11/se_block_11/ExpandDims_1/dim", "shape": [], "dtype": "int32"}, {"name": "ConstantFolding/StatefulPartitionedCall/mobile_net_v3_large/bottle_neck_10/truediv_1_recip", "shape": [], "dtype": "float32"}, {"name": "ConstantFolding/StatefulPartitionedCall/mobile_net_v3_large/bottle_neck_10/truediv_recip", "shape": [], "dtype": "float32"}, {"name": "ConstantFolding/StatefulPartitionedCall/mobile_net_v3_large/bottle_neck_9/truediv_1_recip", "shape": [], "dtype": "float32"}, {"name": "ConstantFolding/StatefulPartitionedCall/mobile_net_v3_large/bottle_neck_9/truediv_recip", "shape": [], "dtype": "float32"}, {"name": "StatefulPartitionedCall/mobile_net_v3_large/bottle_neck_9/add/y", "shape": [], "dtype": "float32"}, {"name": "StatefulPartitionedCall/mobile_net_v3_large/bottle_neck_9/add_1/y", "shape": [], "dtype": "float32"}, {"name": "ConstantFolding/StatefulPartitionedCall/mobile_net_v3_large/bottle_neck_8/truediv_1_recip", "shape": [], "dtype": "float32"}, {"name": "ConstantFolding/StatefulPartitionedCall/mobile_net_v3_large/bottle_neck_8/truediv_recip", "shape": [], "dtype": "float32"}, {"name": "StatefulPartitionedCall/mobile_net_v3_large/bottle_neck_8/add/y", "shape": [], "dtype": "float32"}, {"name": "StatefulPartitionedCall/mobile_net_v3_large/bottle_neck_8/add_1/y", "shape": [], "dtype": "float32"}, {"name": "ConstantFolding/StatefulPartitionedCall/mobile_net_v3_large/bottle_neck_7/truediv_1_recip", "shape": [], "dtype": "float32"}, {"name": "ConstantFolding/StatefulPartitionedCall/mobile_net_v3_large/bottle_neck_7/truediv_recip", "shape": [], "dtype": "float32"}, {"name": "StatefulPartitionedCall/mobile_net_v3_large/bottle_neck_7/add/y", "shape": [], "dtype": "float32"}, {"name": "StatefulPartitionedCall/mobile_net_v3_large/bottle_neck_7/add_1/y", "shape": [], "dtype": "float32"}, {"name": "ConstantFolding/StatefulPartitionedCall/mobile_net_v3_large/bottle_neck_6/truediv_1_recip", "shape": [], "dtype": "float32"}, {"name": "ConstantFolding/StatefulPartitionedCall/mobile_net_v3_large/bottle_neck_6/truediv_recip", "shape": [], "dtype": "float32"}, {"name": "StatefulPartitionedCall/mobile_net_v3_large/bottle_neck_5/se_block_5/global_average_pooling2d_5/Mean/reduction_indices", "shape": [2], "dtype": "int32"}, {"name": "unknown_115", "shape": [120, 7], "dtype": "float32"}, {"name": "unknown_116", "shape": [7], "dtype": "float32"}, {"name": "unknown_117", "shape": [7, 120], "dtype": "float32"}, {"name": "unknown_118", "shape": [120], "dtype": "float32"}, {"name": "StatefulPartitionedCall/mobile_net_v3_large/bottle_neck_5/se_block_5/add/y", "shape": [], "dtype": "float32"}, {"name": "ConstantFolding/StatefulPartitionedCall/mobile_net_v3_large/bottle_neck_5/se_block_5/truediv_recip", "shape": [], "dtype": "float32"}, {"name": "StatefulPartitionedCall/mobile_net_v3_large/bottle_neck_5/se_block_5/ExpandDims/dim", "shape": [], "dtype": "int32"}, {"name": "StatefulPartitionedCall/mobile_net_v3_large/bottle_neck_5/se_block_5/ExpandDims_1/dim", "shape": [], "dtype": "int32"}, {"name": "StatefulPartitionedCall/mobile_net_v3_large/bottle_neck_4/se_block_4/global_average_pooling2d_4/Mean/reduction_indices", "shape": [2], "dtype": "int32"}, {"name": "unknown_93", "shape": [120, 7], "dtype": "float32"}, {"name": "unknown_94", "shape": [7], "dtype": "float32"}, {"name": "unknown_95", "shape": [7, 120], "dtype": "float32"}, {"name": "unknown_96", "shape": [120], "dtype": "float32"}, {"name": "StatefulPartitionedCall/mobile_net_v3_large/bottle_neck_4/se_block_4/add/y", "shape": [], "dtype": "float32"}, {"name": "ConstantFolding/StatefulPartitionedCall/mobile_net_v3_large/bottle_neck_4/se_block_4/truediv_recip", "shape": [], "dtype": "float32"}, {"name": "StatefulPartitionedCall/mobile_net_v3_large/bottle_neck_4/se_block_4/ExpandDims/dim", "shape": [], "dtype": "int32"}, {"name": "StatefulPartitionedCall/mobile_net_v3_large/bottle_neck_4/se_block_4/ExpandDims_1/dim", "shape": [], "dtype": "int32"}, {"name": "ConstantFolding/StatefulPartitionedCall/mobile_net_v3_large/truediv_recip", "shape": [], "dtype": "float32"}, {"name": "StatefulPartitionedCall/mobile_net_v3_large/add/y", "shape": [], "dtype": "float32"}, {"name": "StatefulPartitionedCall/mobile_net_v3_large/bottle_neck_3/se_block_3/global_average_pooling2d_3/Mean/reduction_indices", "shape": [2], "dtype": "int32"}, {"name": "unknown_71", "shape": [72, 4], "dtype": "float32"}, {"name": "unknown_72", "shape": [4], "dtype": "float32"}, {"name": "unknown_73", "shape": [4, 72], "dtype": "float32"}, {"name": "unknown_74", "shape": [72], "dtype": "float32"}, {"name": "StatefulPartitionedCall/mobile_net_v3_large/bottle_neck_3/se_block_3/add/y", "shape": [], "dtype": "float32"}, {"name": "ConstantFolding/StatefulPartitionedCall/mobile_net_v3_large/bottle_neck_3/se_block_3/truediv_recip", "shape": [], "dtype": "float32"}, {"name": "StatefulPartitionedCall/mobile_net_v3_large/bottle_neck_3/se_block_3/ExpandDims/dim", "shape": [], "dtype": "int32"}, {"name": "StatefulPartitionedCall/mobile_net_v3_large/bottle_neck_3/se_block_3/ExpandDims_1/dim", "shape": [], "dtype": "int32"}, {"name": "StatefulPartitionedCall/mobile_net_v3_large/bottle_neck_6/add/y", "shape": [], "dtype": "float32"}, {"name": "StatefulPartitionedCall/mobile_net_v3_large/bottle_neck_6/add_1/y", "shape": [], "dtype": "float32"}, {"name": "StatefulPartitionedCall/mobile_net_v3_large/bottle_neck_10/add/y", "shape": [], "dtype": "float32"}, {"name": "StatefulPartitionedCall/mobile_net_v3_large/bottle_neck_10/add_1/y", "shape": [], "dtype": "float32"}, {"name": "StatefulPartitionedCall/mobile_net_v3_large/bottle_neck_10/se_block_10/global_average_pooling2d_10/Mean/reduction_indices", "shape": [2], "dtype": "int32"}, {"name": "unknown_209", "shape": [480, 30], "dtype": "float32"}, {"name": "unknown_210", "shape": [30], "dtype": "float32"}, {"name": "unknown_211", "shape": [30, 480], "dtype": "float32"}, {"name": "unknown_212", "shape": [480], "dtype": "float32"}, {"name": "StatefulPartitionedCall/mobile_net_v3_large/bottle_neck_10/se_block_10/add/y", "shape": [], "dtype": "float32"}, {"name": "ConstantFolding/StatefulPartitionedCall/mobile_net_v3_large/bottle_neck_10/se_block_10/truediv_recip", "shape": [], "dtype": "float32"}, {"name": "StatefulPartitionedCall/mobile_net_v3_large/bottle_neck_10/se_block_10/ExpandDims/dim", "shape": [], "dtype": "int32"}, {"name": "StatefulPartitionedCall/mobile_net_v3_large/bottle_neck_10/se_block_10/ExpandDims_1/dim", "shape": [], "dtype": "int32"}, {"name": "StatefulPartitionedCall/mobile_net_v3_large/bottle_neck_12/add/y", "shape": [], "dtype": "float32"}, {"name": "StatefulPartitionedCall/mobile_net_v3_large/bottle_neck_12/add_1/y", "shape": [], "dtype": "float32"}, {"name": "StatefulPartitionedCall/mobile_net_v3_large/bottle_neck_12/se_block_12/global_average_pooling2d_12/Mean/reduction_indices", "shape": [2], "dtype": "int32"}, {"name": "unknown_253", "shape": [672, 42], "dtype": "float32"}, {"name": "unknown_254", "shape": [42], "dtype": "float32"}, {"name": "unknown_255", "shape": [42, 672], "dtype": "float32"}, {"name": "unknown_256", "shape": [672], "dtype": "float32"}, {"name": "StatefulPartitionedCall/mobile_net_v3_large/bottle_neck_12/se_block_12/add/y", "shape": [], "dtype": "float32"}, {"name": "ConstantFolding/StatefulPartitionedCall/mobile_net_v3_large/bottle_neck_12/se_block_12/truediv_recip", "shape": [], "dtype": "float32"}, {"name": "StatefulPartitionedCall/mobile_net_v3_large/bottle_neck_12/se_block_12/ExpandDims/dim", "shape": [], "dtype": "int32"}, {"name": "StatefulPartitionedCall/mobile_net_v3_large/bottle_neck_12/se_block_12/ExpandDims_1/dim", "shape": [], "dtype": "int32"}, {"name": "StatefulPartitionedCall/mobile_net_v3_large/add_1/y", "shape": [], "dtype": "float32"}, {"name": "unknown_313", "shape": [1, 1, 960, 1280], "dtype": "float32"}, {"name": "unknown_314", "shape": [1280], "dtype": "float32"}, {"name": "StatefulPartitionedCall/mobile_net_v3_large/add_2/y", "shape": [], "dtype": "float32"}, {"name": "unknown_315", "shape": [1, 1, 1280, 15], "dtype": "float32"}, {"name": "unknown_316", "shape": [15], "dtype": "float32"}, {"name": "StatefulPartitionedCall/mobile_net_v3_large/conv2d_33/Max/reduction_indices", "shape": [], "dtype": "int32"}, {"name": "StatefulPartitionedCall/mobile_net_v3_large/conv2d_33/Sum/reduction_indices", "shape": [], "dtype": "int32"}, {"name": "StatefulPartitionedCall/mobile_net_v3_large/conv2d/Conv2D_weights", "shape": [3, 3, 3, 16], "dtype": "float32"}, {"name": "StatefulPartitionedCall/mobile_net_v3_large/conv2d/Conv2D_bn_offset", "shape": [16], "dtype": "float32"}, {"name": "StatefulPartitionedCall/mobile_net_v3_large/bottle_neck/conv2d_1/Conv2D_weights", "shape": [1, 1, 16, 16], "dtype": "float32"}, {"name": "StatefulPartitionedCall/mobile_net_v3_large/bottle_neck/conv2d_1/Conv2D_bn_offset", "shape": [16], "dtype": "float32"}, {"name": "StatefulPartitionedCall/mobile_net_v3_large/bottle_neck/depthwise_conv2d/depthwise_weights", "shape": [3, 3, 16, 1], "dtype": "float32"}, {"name": "StatefulPartitionedCall/mobile_net_v3_large/bottle_neck/depthwise_conv2d/depthwise_bn_offset", "shape": [16], "dtype": "float32"}, {"name": "StatefulPartitionedCall/mobile_net_v3_large/bottle_neck/conv2d_2/Conv2D_weights", "shape": [1, 1, 16, 16], "dtype": "float32"}, {"name": "StatefulPartitionedCall/mobile_net_v3_large/bottle_neck_13/conv2d_28/Conv2D_weights", "shape": [1, 1, 960, 160], "dtype": "float32"}, {"name": "StatefulPartitionedCall/mobile_net_v3_large/bottle_neck/conv2d_2/Conv2D_bn_offset", "shape": [16], "dtype": "float32"}, {"name": "StatefulPartitionedCall/mobile_net_v3_large/bottle_neck_1/conv2d_3/Conv2D_weights", "shape": [1, 1, 16, 64], "dtype": "float32"}, {"name": "StatefulPartitionedCall/mobile_net_v3_large/bottle_neck_1/conv2d_3/Conv2D_bn_offset", "shape": [64], "dtype": "float32"}, {"name": "StatefulPartitionedCall/mobile_net_v3_large/bottle_neck_13/conv2d_28/Conv2D_bn_offset", "shape": [160], "dtype": "float32"}, {"name": "StatefulPartitionedCall/mobile_net_v3_large/bottle_neck_1/depthwise_conv2d_1/depthwise_weights", "shape": [3, 3, 64, 1], "dtype": "float32"}, {"name": "StatefulPartitionedCall/mobile_net_v3_large/bottle_neck_1/depthwise_conv2d_1/depthwise_bn_offset", "shape": [64], "dtype": "float32"}, {"name": "StatefulPartitionedCall/mobile_net_v3_large/bottle_neck_1/conv2d_4/Conv2D_weights", "shape": [1, 1, 64, 24], "dtype": "float32"}, {"name": "StatefulPartitionedCall/mobile_net_v3_large/bottle_neck_1/conv2d_4/Conv2D_bn_offset", "shape": [24], "dtype": "float32"}, {"name": "StatefulPartitionedCall/mobile_net_v3_large/bottle_neck_2/conv2d_5/Conv2D_weights", "shape": [1, 1, 24, 72], "dtype": "float32"}, {"name": "StatefulPartitionedCall/mobile_net_v3_large/bottle_neck_2/conv2d_5/Conv2D_bn_offset", "shape": [72], "dtype": "float32"}, {"name": "StatefulPartitionedCall/mobile_net_v3_large/bottle_neck_14/conv2d_29/Conv2D_weights", "shape": [1, 1, 160, 960], "dtype": "float32"}, {"name": "StatefulPartitionedCall/mobile_net_v3_large/bottle_neck_2/depthwise_conv2d_2/depthwise_weights", "shape": [3, 3, 72, 1], "dtype": "float32"}, {"name": "StatefulPartitionedCall/mobile_net_v3_large/bottle_neck_2/depthwise_conv2d_2/depthwise_bn_offset", "shape": [72], "dtype": "float32"}, {"name": "StatefulPartitionedCall/mobile_net_v3_large/bottle_neck_2/conv2d_6/Conv2D_weights", "shape": [1, 1, 72, 24], "dtype": "float32"}, {"name": "StatefulPartitionedCall/mobile_net_v3_large/bottle_neck_2/conv2d_6/Conv2D_bn_offset", "shape": [24], "dtype": "float32"}, {"name": "StatefulPartitionedCall/mobile_net_v3_large/bottle_neck_3/conv2d_7/Conv2D_weights", "shape": [1, 1, 24, 72], "dtype": "float32"}, {"name": "StatefulPartitionedCall/mobile_net_v3_large/bottle_neck_14/conv2d_29/Conv2D_bn_offset", "shape": [960], "dtype": "float32"}, {"name": "StatefulPartitionedCall/mobile_net_v3_large/bottle_neck_3/conv2d_7/Conv2D_bn_offset", "shape": [72], "dtype": "float32"}, {"name": "StatefulPartitionedCall/mobile_net_v3_large/bottle_neck_3/depthwise_conv2d_3/depthwise_weights", "shape": [5, 5, 72, 1], "dtype": "float32"}, {"name": "StatefulPartitionedCall/mobile_net_v3_large/bottle_neck_3/depthwise_conv2d_3/depthwise_bn_offset", "shape": [72], "dtype": "float32"}, {"name": "StatefulPartitionedCall/mobile_net_v3_large/bottle_neck_3/conv2d_8/Conv2D_weights", "shape": [1, 1, 72, 40], "dtype": "float32"}, {"name": "StatefulPartitionedCall/mobile_net_v3_large/bottle_neck_3/conv2d_8/Conv2D_bn_offset", "shape": [40], "dtype": "float32"}, {"name": "StatefulPartitionedCall/mobile_net_v3_large/bottle_neck_4/conv2d_9/Conv2D_weights", "shape": [1, 1, 40, 120], "dtype": "float32"}, {"name": "StatefulPartitionedCall/mobile_net_v3_large/bottle_neck_14/depthwise_conv2d_14/depthwise_weights", "shape": [3, 3, 960, 1], "dtype": "float32"}, {"name": "StatefulPartitionedCall/mobile_net_v3_large/bottle_neck_4/conv2d_9/Conv2D_bn_offset", "shape": [120], "dtype": "float32"}, {"name": "StatefulPartitionedCall/mobile_net_v3_large/bottle_neck_4/depthwise_conv2d_4/depthwise_weights", "shape": [5, 5, 120, 1], "dtype": "float32"}, {"name": "StatefulPartitionedCall/mobile_net_v3_large/bottle_neck_4/depthwise_conv2d_4/depthwise_bn_offset", "shape": [120], "dtype": "float32"}, {"name": "StatefulPartitionedCall/mobile_net_v3_large/bottle_neck_14/depthwise_conv2d_14/depthwise_bn_offset", "shape": [960], "dtype": "float32"}, {"name": "StatefulPartitionedCall/mobile_net_v3_large/bottle_neck_4/conv2d_10/Conv2D_weights", "shape": [1, 1, 120, 40], "dtype": "float32"}, {"name": "StatefulPartitionedCall/mobile_net_v3_large/bottle_neck_4/conv2d_10/Conv2D_bn_offset", "shape": [40], "dtype": "float32"}, {"name": "StatefulPartitionedCall/mobile_net_v3_large/bottle_neck_5/conv2d_11/Conv2D_weights", "shape": [1, 1, 40, 120], "dtype": "float32"}, {"name": "StatefulPartitionedCall/mobile_net_v3_large/bottle_neck_5/conv2d_11/Conv2D_bn_offset", "shape": [120], "dtype": "float32"}, {"name": "StatefulPartitionedCall/mobile_net_v3_large/bottle_neck_5/depthwise_conv2d_5/depthwise_weights", "shape": [5, 5, 120, 1], "dtype": "float32"}, {"name": "StatefulPartitionedCall/mobile_net_v3_large/bottle_neck_5/depthwise_conv2d_5/depthwise_bn_offset", "shape": [120], "dtype": "float32"}, {"name": "StatefulPartitionedCall/mobile_net_v3_large/bottle_neck_5/conv2d_12/Conv2D_weights", "shape": [1, 1, 120, 40], "dtype": "float32"}, {"name": "StatefulPartitionedCall/mobile_net_v3_large/bottle_neck_5/conv2d_12/Conv2D_bn_offset", "shape": [40], "dtype": "float32"}, {"name": "StatefulPartitionedCall/mobile_net_v3_large/bottle_neck_6/conv2d_13/Conv2D_weights", "shape": [1, 1, 40, 240], "dtype": "float32"}, {"name": "StatefulPartitionedCall/mobile_net_v3_large/bottle_neck_6/conv2d_13/Conv2D_bn_offset", "shape": [240], "dtype": "float32"}, {"name": "StatefulPartitionedCall/mobile_net_v3_large/bottle_neck_6/depthwise_conv2d_6/depthwise_weights", "shape": [3, 3, 240, 1], "dtype": "float32"}, {"name": "StatefulPartitionedCall/mobile_net_v3_large/bottle_neck_6/depthwise_conv2d_6/depthwise_bn_offset", "shape": [240], "dtype": "float32"}, {"name": "StatefulPartitionedCall/mobile_net_v3_large/bottle_neck_6/conv2d_14/Conv2D_weights", "shape": [1, 1, 240, 80], "dtype": "float32"}, {"name": "StatefulPartitionedCall/mobile_net_v3_large/bottle_neck_6/conv2d_14/Conv2D_bn_offset", "shape": [80], "dtype": "float32"}, {"name": "StatefulPartitionedCall/mobile_net_v3_large/bottle_neck_7/conv2d_15/Conv2D_weights", "shape": [1, 1, 80, 200], "dtype": "float32"}, {"name": "StatefulPartitionedCall/mobile_net_v3_large/bottle_neck_7/conv2d_15/Conv2D_bn_offset", "shape": [200], "dtype": "float32"}, {"name": "StatefulPartitionedCall/mobile_net_v3_large/bottle_neck_7/depthwise_conv2d_7/depthwise_weights", "shape": [3, 3, 200, 1], "dtype": "float32"}, {"name": "StatefulPartitionedCall/mobile_net_v3_large/bottle_neck_7/depthwise_conv2d_7/depthwise_bn_offset", "shape": [200], "dtype": "float32"}, {"name": "StatefulPartitionedCall/mobile_net_v3_large/bottle_neck_7/conv2d_16/Conv2D_weights", "shape": [1, 1, 200, 80], "dtype": "float32"}, {"name": "StatefulPartitionedCall/mobile_net_v3_large/bottle_neck_7/conv2d_16/Conv2D_bn_offset", "shape": [80], "dtype": "float32"}, {"name": "StatefulPartitionedCall/mobile_net_v3_large/bottle_neck_8/conv2d_17/Conv2D_weights", "shape": [1, 1, 80, 184], "dtype": "float32"}, {"name": "StatefulPartitionedCall/mobile_net_v3_large/bottle_neck_8/conv2d_17/Conv2D_bn_offset", "shape": [184], "dtype": "float32"}, {"name": "StatefulPartitionedCall/mobile_net_v3_large/bottle_neck_8/depthwise_conv2d_8/depthwise_weights", "shape": [3, 3, 184, 1], "dtype": "float32"}, {"name": "StatefulPartitionedCall/mobile_net_v3_large/bottle_neck_8/depthwise_conv2d_8/depthwise_bn_offset", "shape": [184], "dtype": "float32"}, {"name": "StatefulPartitionedCall/mobile_net_v3_large/bottle_neck_8/conv2d_18/Conv2D_weights", "shape": [1, 1, 184, 80], "dtype": "float32"}, {"name": "StatefulPartitionedCall/mobile_net_v3_large/bottle_neck_8/conv2d_18/Conv2D_bn_offset", "shape": [80], "dtype": "float32"}, {"name": "StatefulPartitionedCall/mobile_net_v3_large/bottle_neck_9/conv2d_19/Conv2D_weights", "shape": [1, 1, 80, 184], "dtype": "float32"}, {"name": "StatefulPartitionedCall/mobile_net_v3_large/bottle_neck_9/conv2d_19/Conv2D_bn_offset", "shape": [184], "dtype": "float32"}, {"name": "StatefulPartitionedCall/mobile_net_v3_large/bottle_neck_9/depthwise_conv2d_9/depthwise_weights", "shape": [3, 3, 184, 1], "dtype": "float32"}, {"name": "StatefulPartitionedCall/mobile_net_v3_large/bottle_neck_9/depthwise_conv2d_9/depthwise_bn_offset", "shape": [184], "dtype": "float32"}, {"name": "StatefulPartitionedCall/mobile_net_v3_large/bottle_neck_9/conv2d_20/Conv2D_weights", "shape": [1, 1, 184, 80], "dtype": "float32"}, {"name": "StatefulPartitionedCall/mobile_net_v3_large/bottle_neck_9/conv2d_20/Conv2D_bn_offset", "shape": [80], "dtype": "float32"}, {"name": "StatefulPartitionedCall/mobile_net_v3_large/bottle_neck_10/conv2d_21/Conv2D_weights", "shape": [1, 1, 80, 480], "dtype": "float32"}, {"name": "StatefulPartitionedCall/mobile_net_v3_large/bottle_neck_14/conv2d_30/Conv2D_weights", "shape": [1, 1, 960, 160], "dtype": "float32"}, {"name": "StatefulPartitionedCall/mobile_net_v3_large/bottle_neck_10/conv2d_21/Conv2D_bn_offset", "shape": [480], "dtype": "float32"}, {"name": "StatefulPartitionedCall/mobile_net_v3_large/bottle_neck_10/depthwise_conv2d_10/depthwise_weights", "shape": [3, 3, 480, 1], "dtype": "float32"}, {"name": "StatefulPartitionedCall/mobile_net_v3_large/bottle_neck_10/depthwise_conv2d_10/depthwise_bn_offset", "shape": [480], "dtype": "float32"}, {"name": "StatefulPartitionedCall/mobile_net_v3_large/bottle_neck_14/conv2d_30/Conv2D_bn_offset", "shape": [160], "dtype": "float32"}, {"name": "StatefulPartitionedCall/mobile_net_v3_large/bottle_neck_10/conv2d_22/Conv2D_weights", "shape": [1, 1, 480, 112], "dtype": "float32"}, {"name": "StatefulPartitionedCall/mobile_net_v3_large/bottle_neck_10/conv2d_22/Conv2D_bn_offset", "shape": [112], "dtype": "float32"}, {"name": "StatefulPartitionedCall/mobile_net_v3_large/bottle_neck_11/conv2d_23/Conv2D_weights", "shape": [1, 1, 112, 672], "dtype": "float32"}, {"name": "StatefulPartitionedCall/mobile_net_v3_large/conv2d_31/Conv2D_weights", "shape": [1, 1, 160, 960], "dtype": "float32"}, {"name": "StatefulPartitionedCall/mobile_net_v3_large/bottle_neck_11/conv2d_23/Conv2D_bn_offset", "shape": [672], "dtype": "float32"}, {"name": "StatefulPartitionedCall/mobile_net_v3_large/bottle_neck_11/depthwise_conv2d_11/depthwise_weights", "shape": [3, 3, 672, 1], "dtype": "float32"}, {"name": "StatefulPartitionedCall/mobile_net_v3_large/bottle_neck_11/depthwise_conv2d_11/depthwise_bn_offset", "shape": [672], "dtype": "float32"}, {"name": "StatefulPartitionedCall/mobile_net_v3_large/conv2d_31/Conv2D_bn_offset", "shape": [960], "dtype": "float32"}, {"name": "StatefulPartitionedCall/mobile_net_v3_large/bottle_neck_11/conv2d_24/Conv2D_weights", "shape": [1, 1, 672, 112], "dtype": "float32"}, {"name": "StatefulPartitionedCall/mobile_net_v3_large/bottle_neck_11/conv2d_24/Conv2D_bn_offset", "shape": [112], "dtype": "float32"}, {"name": "StatefulPartitionedCall/mobile_net_v3_large/bottle_neck_12/conv2d_25/Conv2D_weights", "shape": [1, 1, 112, 672], "dtype": "float32"}, {"name": "StatefulPartitionedCall/mobile_net_v3_large/bottle_neck_12/conv2d_25/Conv2D_bn_offset", "shape": [672], "dtype": "float32"}, {"name": "StatefulPartitionedCall/mobile_net_v3_large/bottle_neck_12/depthwise_conv2d_12/depthwise_weights", "shape": [3, 3, 672, 1], "dtype": "float32"}, {"name": "StatefulPartitionedCall/mobile_net_v3_large/bottle_neck_12/depthwise_conv2d_12/depthwise_bn_offset", "shape": [672], "dtype": "float32"}, {"name": "StatefulPartitionedCall/mobile_net_v3_large/bottle_neck_12/conv2d_26/Conv2D_weights", "shape": [1, 1, 672, 160], "dtype": "float32"}, {"name": "StatefulPartitionedCall/mobile_net_v3_large/bottle_neck_12/conv2d_26/Conv2D_bn_offset", "shape": [160], "dtype": "float32"}, {"name": "StatefulPartitionedCall/mobile_net_v3_large/bottle_neck_13/conv2d_27/Conv2D_weights", "shape": [1, 1, 160, 960], "dtype": "float32"}, {"name": "StatefulPartitionedCall/mobile_net_v3_large/bottle_neck_13/conv2d_27/Conv2D_bn_offset", "shape": [960], "dtype": "float32"}, {"name": "StatefulPartitionedCall/mobile_net_v3_large/bottle_neck_13/depthwise_conv2d_13/depthwise_weights", "shape": [3, 3, 960, 1], "dtype": "float32"}, {"name": "StatefulPartitionedCall/mobile_net_v3_large/bottle_neck_13/depthwise_conv2d_13/depthwise_bn_offset", "shape": [960], "dtype": "float32"}]}]}